insurance-chatbot-cpu/adapter_model.safetensors (safetensors, 592848 bytes, 24 tensors)

base_model.model.transformer.h.0.attn.c_attn.lora_A.weight f4 [4, 768]
000000 a0 99 ff ba 45 29 e5 3b 42 47 65 3d 77 de 0b bc
       -0.001950074 0.006993445 0.05597616 -0.0085369265
000010 57 1a 35 bd 38 35 78 3c 31 b7 4e bd 97 96 1e bd
       -0.044214573 0.015149407 -0.050467674 -0.038717832
000020 82 47 6b bd c4 b9 f6 3c 0e a3 8a 3c 12 24 20 bc
       -0.057441242 0.030117877 0.016923454 -0.009774225
000030 a1 1c 06 ba 67 12 09 bd 98 c4 a9 3c 90 09 71 3b
       -0.00051159604 -0.033464815 0.020723626 0.0036779381
000040 d0 46 0d bd f2 58 24 bd 32 5b 32 bc ac b2 0f 3d
       -0.03449136 -0.040123887 -0.0108860005 0.035082504
000050 90 b0 1c bc e0 62 ba bc dd f1 99 3d 96 a9 67 bc
       -0.00956358 -0.022752225 0.07516835 -0.0141395535
000060 35 0f 13 3c 37 35 14 bc 4f 9a fe 3b d7 98 9e 3c
       0.008975794 -0.0090458905 0.00776986 0.01935999
000070 d9 7b af bc 87 db 7d bb a9 65 22 3d 1d 0c a1 bc
       -0.02142136 -0.0038735585 0.039647732 -0.019659096
000080 0e f6 88 bd b2 a3 a3 3c 82 a9 2e 3c 0d 59 f0 3c
       -0.06687556 0.019975517 0.010660531 0.029339338
000090 13 cd 61 bd 81 26 28 bd 79 88 d9 bb 25 97 04 3c
       -0.055127215 -0.041052345 -0.0066385833 0.008092676
0000a0 e3 59 27 3d 3d c0 08 3d a5 dd 66 bd 75 6f 36 3a
       0.040857207 0.033386458 -0.05636372 0.00069593574
0000b0 fb d0 32 3d a3 46 82 bd 61 97 9a bb 20 46 5b 3c
       0.04365633 -0.06361129 -0.004717753 0.013383418
0000c0 29 c4 14 b9 49 84 d3 3b c4 9e 72 bd cf fc 36 3d
       -0.00014187455 0.0064549786 -0.059233442 0.04467469
0000d0 03 78 27 bc fc c2 ea 3c a7 e1 d7 bc 75 45 3c ba
       -0.010221484 0.028657429 -0.026352717 -0.0007181981
0000e0 68 b2 08 3d e8 4a 9d bc 01 ad 2f 3d 73 85 81 3c
       0.033373266 -0.019200757 0.0428896 0.015810704
0000f0 df 3b 14 3a 99 21 38 bd 13 80 80 bc 46 ac 87 3b
       0.00056546734 -0.044953916 -0.01568607 0.0041404096
000100 d0 e2 0a 3c e6 1e 6e 3b de 1d 08 bd d1 f9 27 bd
       0.008476928 0.0036334335 -0.03323161 -0.041009728
000110 3e 3a 00 bd e3 60 8a 3b 59 c3 7b 3d 64 fa e1 3b
       -0.031305544 0.0042229756 0.061465595 0.006896304
000120 c3 9a 22 ba 00 15 79 3d 10 7c 64 3d 0f 02 7b 3d
       -0.0006202871 0.060811043 0.055782378 0.06128126
000130 ec d1 22 3d 0e bd 7f 3c 24 53 ef bc d5 a6 4b bd
       0.03975098 0.015609039 -0.02921445 -0.04971965
000140 c3 32 4b bc 9b ed f2 bb c7 49 d7 3c b8 df da bc
       -0.012402239 -0.0074135787 0.026280297 -0.026718006
000150 56 b6 bb 3c 38 73 51 bc 69 34 4d bd ed 52 e4 3c
       0.022914093 -0.012783818 -0.05009881 0.027871573
000160 35 fb 2b 3c fc 01 4d bd c2 59 13 bd 6c ae ba 3b
       0.010496904 -0.05005072 -0.03597427 0.0056970622
000170 e0 4c 9b 3b d4 70 dc 3c 62 e7 37 3a c0 97 83 bd
       0.004739389 0.02690927 0.0007015375 -0.064254284
000180 b4 a0 71 bd 56 e3 81 ba 5f 1f 8f bc c5 6d 31 bc
       -0.05899115 -0.000990967 -0.017471014 -0.010829394
000190 c2 3a 09 3d 7b 7b a9 bc 5a c2 2e 3d 6b 41 af 3b
       0.0335033 -0.020688763 0.042665817 0.0053483746
0001a0 14 c7 c1 3b 98 ee 19 3d 9e c2 22 3d 8e 1c c5 3b
       0.0059136245 0.037581056 0.039736383 0.006015367
0001b0 d4 4d 16 3d 58 0e 72 3d 3e 9a 60 3c a8 52 27 bd
       0.036695316 0.05909571 0.013708649 -0.04085031
0001c0 e5 70 8d 3c fb 67 78 3d e9 22 8c bc 92 20 08 bc
       0.017265746 0.06064604 -0.01710649 -0.008308547
0001d0 11 0b d6 bb 87 ac 03 3d 79 d4 40 3c a8 bf 93 3c
       -0.006532081 0.032146957 0.011769407 0.018035725
0001e0 76 e3 53 bc 17 95 70 3d c4 46 17 bd c6 32 12 3b
       -0.012932649 0.058735933 -0.03693272 0.0022308095
0001f0 f8 5c 2c bd 9a c1 8d 3c 35 ce b2 bc 8c 2a 30 3d
       -0.04208085 0.01730423 -0.021826843 0.043009326
000200 d5 51 20 3c 3c c0 b9 bb 82 78 2a bd 14 0b 21 3c
       0.009785135 -0.005668668 -0.04161883 0.009829301
000210 64 5b 8c bc 6a f9 4f 3d 46 7a 2d 3d 35 98 ee bc
       -0.017133422 0.05077497 0.042352937 -0.029125312
000220 82 4a 0a bc 43 75 e8 bc f4 6a fc bc 5d 7b 22 3d
       -0.008440616 -0.028376227 -0.030812718 0.03966843
000230 ea f4 45 bd 1d 32 d3 3c a4 65 b3 3c 5d 8f 1b 3d
       -0.04832927 0.025780732 0.021899052 0.03797852
000240 72 cc 55 3c 27 ba f2 bc 3c aa 23 bc 57 a9 2d 3d
       0.013049232 -0.02962978 -0.0099893175 0.042397823
000250 38 d6 64 bd 9f 0f 0f 3c 9d 05 39 bd 07 61 46 bc
       -0.055868357 0.008731752 -0.04517137 -0.012108094
000260 2c 48 55 3d df ab 5b bd 11 5a ee 3c 6e 5c b9 3c
       0.05207078 -0.053630706 0.029095681 0.022627082
000270 67 4b f8 3c 46 15 5c bd 73 4e 0c ba e6 a4 43 3b
       0.030309392 -0.053731225 -0.0005352266 0.0029852926
000280 6c a8 03 bd d1 cb 7b bd c6 06 91 bb 1c eb 1d 3d
       -0.03214304 -0.06147367 -0.0044258563 0.038554296
000290 3c 6c 47 bd 53 27 86 3d ba 8c c6 bc 2d 93 27 bc
       -0.048687205 0.06550469 -0.024237026 -0.010227961
0002a0 32 84 f3 bc ee 9e 0e 3d f0 dd 37 bd 5d 8c 70 3c
       -0.029726122 0.034819536 -0.04488939 0.014681903
0002b0 79 26 1b 3c 2d ff 88 bd e8 29 67 ba e1 c5 68 bd
       0.009469622 -0.06689296 -0.0008818195 -0.056829337
0002c0 85 86 52 bd 32 31 64 bb b3 0c 8c 3c 1b fe 09 3d
       -0.05139782 -0.0034819362 0.0170959 0.0336896
0002d0 7a e7 ce bc 27 10 12 bd 27 10 e6 bc 90 32 24 3d
       -0.025256861 -0.035659935 -0.028083874 0.040087283
0002e0 c8 0e ca bc d8 c7 71 3d 9a ef 63 bd a3 2a 69 3d
       -0.024665251 0.059028476 -0.055648424 0.056925427
0002f0 e5 d1 64 bc ea f7 3c 3d 16 c9 19 bb 49 98 e1 3c
       -0.013966058 0.046134867 -0.0023465804 0.027538436
000300 8f 51 c1 bc 83 05 19 bc ad 3e 1f 3d e3 33 a8 3c
       -0.02359846 -0.009339693 0.03887813 0.020532554
000310 d0 18 d4 bc 33 98 3d bd bd 15 6c bd 08 da d1 bb
       -0.025890738 -0.046287727 -0.05763792 -0.006404165
000320 d5 6c ce bc f2 e2 30 3d df 76 00 bc fa b5 99 3b
       -0.02519838 0.043185182 -0.007840841 0.0046908827
000330 89 ba cd 3c 11 7b 7a bc b3 16 c0 3c 3e 39 27 3d
       0.025113361 -0.01528813 0.023448324 0.040826075
000340 d1 70 86 3c ba aa 12 3d f0 1e 26 3c e7 c3 37 bd
       0.016411217 0.03580735 0.010139212 -0.04486456
000350 c8 ea 47 3d bf 62 44 ba 44 09 7c 3c 07 4f 83 bc
       0.04880789 -0.0007491521 0.0153830685 -0.016028894
000360 03 0f ac 3b 04 0c 2e bd 55 30 76 3d 08 95 5d 3c
       0.005250813 -0.042491928 0.060104687 0.013524301
000370 6c 99 80 bd 8b f4 09 bc bc 1f 6c 3a 9f 3a 13 bd
       -0.06279263 -0.00842012 0.00090074143 -0.035944577
000380 c7 92 ba 39 d0 48 a7 3c 35 8e 11 3d 87 85 8e 3c
       0.00035586042 0.020420462 0.03553601 0.017397655
000390 42 95 0b bc bd 61 fe bc 6f e5 3c bd 75 cc 81 3b
       -0.008519473 -0.031052465 -0.046117242 0.0039611408
0003a0 18 c1 b4 bc b9 d1 e4 ba 15 0d e4 3b 93 74 fc bb
       -0.02206473 -0.0017457522 0.0069595673 -0.0077043264
0003b0 fd d0 70 bd 92 ca cf bb 51 96 61 3d 64 91 09 bd
       -0.058793057 -0.006341287 0.055074994 -0.03358592
0003c0 15 19 85 3d af 80 3e 3c 24 fc b9 3c b6 ff cd bc
       0.06498925 0.01162736 0.022703238 -0.025146347
0003d0 6a 32 71 bd aa 4b 90 3b c6 6b c6 3c f1 c8 2f 3c
       -0.05888597 0.004403551 0.024221312 0.0107290605
0003e0 3b 7b c2 bc 67 e4 53 3d 79 dc bd bc 6b 00 f3 3c
       -0.023740401 0.051731493 -0.023176419 0.029663285
0003f0 c1 8b 8a 3c 2c e2 e2 ba 86 72 76 3c 82 0f 36 ba
       0.016912343 -0.0017309836 0.015041953 -0.000694506

base_model.model.transformer.h.0.attn.c_attn.lora_B.weight f4 [2304, 4]
000000 6a 14 06 bc 9b e8 9b bb c1 9f 90 bb 01 e5 17 3c
       -0.008183578 -0.0047579533 -0.0044135754 0.009270907
000010 21 10 58 3c 93 93 1d 3c 4b 69 2e 3c e9 2a 06 bc
       0.013187439 0.009617704 0.010645221 -0.0081889415
000020 03 24 98 3c b8 76 8c 3c 2e 44 81 3c 0f 5e 87 bc
       0.01857186 0.017146453 0.01577958 -0.016524343
000030 3b 0a 08 3c 71 1c e7 3b 56 63 44 bb 55 ca 1f bc
       0.00830322 0.007052951 -0.0029966435 -0.00975283
000040 0a 13 4f 3c bc 64 0b 3c 93 a4 9b 3a 85 49 70 bc
       0.012638817 0.008507904 0.0011874608 -0.014665966
000050 7b 9a 43 3c f2 52 ef 3b 37 a6 94 b9 d1 df 59 bc
       0.0119386865 0.007303589 -0.000283526 -0.013297991
000060 cc ea 4f 3b aa 80 e8 ba 4d b2 19 3a c9 6b 17 bb
       0.0031725643 -0.001773854 0.00058630557 -0.0023105016
000070 37 5b 9d 3b ad a4 d1 3b 0f cf d9 bb 88 70 b0 bb
       0.0048021334 0.0063978047 -0.0066469978 -0.0053845085
000080 8c fa 93 3b d5 3a 3a bb 1c 53 2b 3b 20 53 de bb
       0.0045159515 -0.0028416414 0.0026142066 -0.0067848116
000090 6e 05 28 bb 66 32 ab bb 9b 3d 9b 3c 1b 48 4d 3b
       -0.0025638002 -0.005224514 0.018950274 0.0031323496
0000a0 5b 82 bc bb 6b 0f bb bb 6d 75 29 3b 99 72 be 3b
       -0.0057528443 -0.005708625 0.0025857345 0.005812001
0000b0 ff a3 fd 3b 76 d6 48 3c d3 ed bc bb 09 02 de bb
       0.007740497 0.012258163 -0.0057656555 -0.006775145
0000c0 d6 3f 38 3c 6b 63 62 3c a6 34 09 bc 48 61 2e bc
       0.011245688 0.013817648 -0.008374369 -0.010643311
0000d0 32 9c d5 3a fe e7 f0 ba 6e 1d 9c 3b 3c 3a 73 ba
       0.001629716 -0.0018379686 0.0047642505 -0.0009278392
0000e0 75 ba e2 3a ae f3 ca bb d2 a2 93 3a 57 ea 04 bb
       0.0017298 -0.0061935997 0.0011263734 -0.002028128
0000f0 db 06 9f ba 0d 83 0b bc ad b1 0e 3b 7d f8 ee 3a
       -0.001213278 -0.008515132 0.0021773383 0.0018232014
000100 3d a2 b5 3a 55 3b cf bb 3c ff b8 3c 27 ea 40 b8
       0.0013857555 -0.0063242116 0.022582643 -4.599444e-05
000110 45 e9 b9 3b 32 01 8c 3b 3c f5 25 bc 4d 86 0a bc
       0.00567356 0.0042726034 -0.010129269 -0.008454871
000120 7a 34 59 3c 4c 2d 52 3c e2 ba 88 bb 8c 54 58 bc
       0.01325714 0.012828182 -0.004172669 -0.013203751
000130 88 96 ac 3b fc f6 f5 ba 9a 60 2a 3c b4 de 81 bb
       0.005266968 -0.0018765624 0.010399008 -0.003963316
000140 86 47 e8 bb 2d 04 a1 bb 31 62 26 bc 73 0b 43 3c
       -0.0070886044 -0.004913828 -0.010155247 0.011904585
000150 54 19 a2 bc ad d6 8a bc 8f 28 d4 3b 9e 92 7a 3c
       -0.019787468 -0.016948069 0.0064745615 0.015293745
000160 6c 01 92 3a 24 06 ef 3b 1b 4e e1 bb d2 79 85 bb
       0.001113934 0.007294433 -0.006875766 -0.00407336
000170 3d c9 45 bb e4 61 0f bc f2 71 16 3c e6 f8 69 3b
       -0.0030179762 -0.008751366 0.00918244 0.0035701334
000180 01 33 f8 3b 5d fa 5a 3c 06 b6 f6 ba 38 15 48 bc
       0.0075744395 0.013365355 -0.0018822558 -0.01221209
000190 17 78 dd 3b ab cb 03 3c 39 b6 3f 3a 31 ac d6 bb
       0.0067587006 0.008044164 0.0007313225 -0.0065512885
0001a0 44 46 85 3a d6 45 84 3b 44 e7 e6 bb 8e 18 5d bb
       0.0010168036 0.0040366454 -0.007046612 -0.003373656
0001b0 aa 08 73 bb 48 2d 3c bb 09 ee 44 ba fa f9 6b ba
       -0.0037084022 -0.0028713513 -0.00075122766 -0.0009001788
0001c0 0f f2 e1 b9 be f2 06 3b 53 5f 7c bc 60 f1 1d 3b
       -0.00043095692 0.0020591463 -0.015403586 0.002410017
0001d0 7e ef 48 bc 2a d1 93 bc 40 4e 22 bb da 99 46 3c
       -0.012264131 -0.018044073 -0.002476588 0.012121642
0001e0 ea 58 29 bc 50 43 0c bb 8c 0f 0e 3a 13 5f 01 3c
       -0.01033614 -0.0021402426 0.0005419187 0.007896203
0001f0 ea ff 7a 3c 87 f2 88 3c 46 77 ea b9 a3 0d 8d bc
       0.015319804 0.016717209 -0.00044720824 -0.017218417
000200 3d 43 63 39 c4 1b e4 3b 13 be b3 3a c3 cf 64 bb
       0.00021673455 0.0069613177 0.0013713263 -0.0034913875
000210 4a 2d 4d 3c 76 73 85 3c e0 5f ba 3b 95 b6 88 bc
       0.012523005 0.016290408 0.0056876987 -0.016688624
000220 34 32 99 3b c5 a3 c0 ba 5b 22 07 3b f0 bc 92 bb
       0.004675174 -0.0014697245 0.0020619843 -0.0044780895
000230 4a 2c 95 bc c6 21 81 bc f0 ea 0f 3c c0 21 9c 3c
       -0.018209595 -0.015763175 0.008784041 0.019059062
000240 b9 5b 1f 3b 51 56 b6 bb fe 5b 8f 3a ef ba 0c ba
       0.0024316146 -0.005564489 0.001093745 -0.00053684314
000250 1a 45 39 3b d1 ff bf 3a 30 30 50 3b 86 43 fe ba
       0.0028269948 0.0014648383 0.0031767003 -0.0019398786
000260 85 cb 95 3a 4e c9 26 bb d2 a5 de bb 7f 60 1a bb
       0.0011428451 -0.0025449577 -0.0067946697 -0.0023556051
000270 ac cb 5c b7 46 c8 9c bb 55 59 56 3c a3 0c 2a 3b
       -1.3160443e-05 -0.0047846166 0.013082822 0.0025947473
000280 ca 82 30 3c e2 fd 4e 3c b1 d2 9b bb 74 71 73 bc
       0.01077337 0.012633773 -0.004755341 -0.014858592
000290 26 d6 57 3b 08 26 1b 3b 58 98 57 39 57 3c 7c b7
       0.003293404 0.0023673791 0.0002056075 -1.5034419e-05
0002a0 0a 6a 4c bb c1 2c 0d bc 4c ef 46 3c 7e 05 9c 3b
       -0.0031191134 -0.008616627 0.012142014 0.004761397
0002b0 23 9e 04 bc ce f3 0c bc 7d a0 6d 3b e7 ec b6 3b
       -0.008094343 -0.008603049 0.0036258989 0.00558244
0002c0 5a ba ce 3b 24 47 5a 3b 54 17 0c 3b bb 7d d4 bb
       0.006308836 0.0033306563 0.002137621 -0.006484715
0002d0 f9 ab 87 ba 75 72 7a 3b 22 8c cb ba 40 aa 2a bb
       -0.0010350934 0.0038215194 -0.0015529434 -0.0026041418
0002e0 58 f7 03 bb 31 0d e3 bb 69 a2 3c bb e3 10 48 3b
       -0.0020136442 -0.006929063 -0.0028783327 0.0030527643
0002f0 90 e8 85 bc 7e 5d cf bb 18 ef 05 bb fc 85 59 3c
       -0.016346246 -0.006328284 -0.00204367 0.013276573
000300 b4 4f 7b bb 65 aa cd bb f7 3a cc 3b b8 57 83 3b
       -0.0038347067 -0.006276416 0.006232615 0.0040082596
000310 5f 8c 42 3c 42 5c 30 3c 19 46 1d 3c d5 90 e5 bb
       0.011874287 0.0107641835 0.009599232 -0.0070057907
000320 aa f3 f8 bb 7e ef 0d bc 7b 0b b9 3b 07 b3 1e 3c
       -0.0075974064 -0.008663056 0.0056471205 0.009686238
000330 59 c6 34 3c 45 22 ab 3b 99 d4 bb bb 3c 8f b0 bb
       0.011033618 0.005222591 -0.0057321307 -0.0053881686
000340 00 9d 67 3c bb 24 ac 3b ce ec 00 bb c4 85 4d bc
       0.014136553 0.005253402 -0.0019672397 -0.012544099
000350 79 ea 28 3a 84 32 cf 3a 35 59 03 3a 4d da a3 3a
       0.00064436306 0.0015807902 0.00050105463 0.0012500972
000360 ef 66 a2 3b a7 cb 60 3b 12 0f 1d 3c a0 c8 a9 bb
       0.0049561183 0.0034301074 0.009586113 -0.005181387
000370 6c 0c 77 3c 60 92 75 3c a6 6f 13 3b 21 6d 53 bc
       0.015078645 0.014988512 0.0022496968 -0.012904436
000380 98 2a 4e 3a 87 d0 a4 3b 57 76 93 bb cb 19 3b bb
       0.00078646233 0.005029741 -0.004500191 -0.002854931
000390 c5 c4 4d bb 18 96 63 3a 3b 4c a9 3c 13 c6 90 3a
       -0.0031397801 0.00086817285 0.020666232 0.0011045359
0003a0 fc 9d a8 3b 41 55 1b bb d3 0d 5f 39 5f 40 2d ba
       0.0051457863 -0.0023701938 0.00021272087 -0.00066090183
0003b0 96 14 0e 3b 43 20 b9 3b bb 3b 44 3b c6 6d ac bb
       0.002167975 0.005649598 0.0029942829 -0.0052621095
0003c0 8f df 78 bc ee b8 30 bc ac a7 6c 3b de eb 73 3c
       -0.015190019 -0.010786278 0.0036110682 0.014887778
0003d0 e4 a1 05 bc de 25 a1 bc b5 18 59 3c a1 6b a2 3c
       -0.0081562735 -0.019671377 0.0132505195 0.019826712
0003e0 31 8e f0 bb 0e a1 a2 ba 70 73 1a bb b6 4f cf 3b
       -0.0073411693 -0.0012407617 -0.0023567341 0.006326641
0003f0 6a 79 61 3a ee 04 b2 39 5b 50 08 3c 19 ef 22 3b
       0.0008601161 0.0003395448 0.0083199395 0.0024861752

base_model.model.transformer.h.1.attn.c_attn.lora_A.weight f4 [4, 768]
000000 69 f4 07 3d c8 7c bd bc 0c 7c 47 bc 9c 53 02 3d
       0.033192072 -0.02313079 -0.012175571 0.031818017
000010 f0 ed 39 bc 8b 21 38 3d 21 11 58 bd 08 1a 04 bc
       -0.011348233 0.044953864 -0.05275071 -0.008062847
000020 b1 54 a0 3c 84 dc 7d bb 96 ca 3f 3c 91 2c 87 bd
       0.019571634 -0.0038736174 0.011706015 -0.06600297
000030 47 a0 0e 3c d6 2f 86 ba da 82 61 3d 81 4c 6b bb
       0.008705205 -0.0010237645 0.05505643 -0.0035903754
000040 3a 06 f9 bb 0c ab 9c bb c5 a1 04 3d 7b 58 0a bc
       -0.007599619 -0.0047811326 0.032380838 -0.008443947
000050 90 ca 6a bb a9 be 96 bc f9 f2 50 3b ff 6b f0 bc
       -0.0035826303 -0.01840146 0.0031883104 -0.029348372
000060 14 65 45 bc 93 fe b1 ba 04 ed 1f 3c 76 2d 16 3d
       -0.012048025 -0.0013579897 0.009761099 0.03666445
000070 20 ca 1a 3b ca f1 ee ba ce 9d d4 3c 17 0a c7 3b
       0.002361901 -0.0018230018 0.025954153 0.006074201
000080 69 35 17 bd 12 bc e3 3c f9 e8 89 3a a2 80 42 3d
       -0.03691617 0.02779964 0.0010521702 0.047485955
000090 d7 b7 6c b9 cd 39 33 bc 23 e1 ff 3c 4d 91 57 bd
       -0.000225752 -0.010939074 0.031235283 -0.052628804
0000a0 4d 7b a4 3b 53 f5 fd bc 77 6b 39 3c 11 5c 82 bc
       0.0050195814 -0.031000769 0.0113171255 -0.015913041
0000b0 52 d9 50 bd 65 bf 87 bc 2e 08 8c 3d fd 5f 7f bb
       -0.050988503 -0.016570756 0.06837498 -0.0038967126
0000c0 f9 9c f2 bc c1 01 99 bc 40 03 13 3d 8c fc 13 bc
       -0.029615866 -0.018677594 0.03589177 -0.00903238
0000d0 0a ea ac bb 3c 16 ac 3c 84 eb 1b bb 4a 70 2c bd
       -0.005276923 0.021006696 -0.0023791501 -0.042099275
0000e0 d8 bd c4 bb 5c 36 fc bb b1 f9 d8 bc ff 70 d7 bc
       -0.0060040765 -0.00769691 -0.02648625 -0.026298998
0000f0 74 e5 7e bc a4 09 09 3d f3 66 43 bc 80 e2 85 bc
       -0.015557636 0.03345646 -0.0119264005 -0.016343355
000100 ff 22 8b bc 67 c7 08 bc 15 5b 5b 3d 35 97 ea 3c
       -0.01698446 -0.0083483225 0.05355366 0.028636554
000110 50 5e 27 bc 83 fc 05 3d a4 6f 15 bd 93 a7 1a bd
       -0.010215357 0.032711517 -0.036483422 -0.037757467
000120 11 96 2f bd 64 eb e4 3c 30 f6 b9 bb 84 b1 62 3d
       -0.042867724 0.027944274 -0.0056751 0.055345073
000130 a4 a7 99 bc ec 14 6f bc 3e 7a fa ba f9 a4 1e 3b
       -0.018756695 -0.0145923905 -0.0019109917 0.0024207218
000140 fd 2a 60 3d 65 3c 82 bc f1 d4 7b 3c e6 7f e1 bb
       0.054728497 -0.015897939 0.015370593 -0.0068817018
000150 e6 29 a0 bc 88 96 1b 3d cf 35 ca bb 60 c7 7f 3b
       -0.019551229 0.037985355 -0.0061709653 0.003902875
000160 69 ba 22 bd eb ff 3c bd cf 2b d5 bc 79 2c 43 bb
       -0.039728556 -0.0461425 -0.026021866 -0.0029781146
000170 36 79 39 3b a9 e5 75 3d 9f ff 15 bc 72 58 93 3c
       0.0028301007 0.060033474 -0.009155183 0.01798651
000180 db 36 40 3d 7e 20 47 3d 25 c2 7c bd 60 79 3c bb
       0.046927314 0.04861497 -0.06170859 -0.0028758869
000190 d8 26 82 bd 59 bb 27 3d 05 c3 03 3d 2a 38 2e bc
       -0.06355065 0.040950153 0.032168407 -0.010633508
0001a0 f0 bc 4e bd 8a 5c 3e 3b e8 c8 01 3d 31 ba 33 bd
       -0.050473154 0.0029046857 0.03168574 -0.043878738
0001b0 47 52 f0 3c 3c c5 b4 ba b7 33 30 bc 97 ed 55 bd
       0.029336108 -0.001379169 -0.010754517 -0.052228536
0001c0 0a 48 09 3c 2b 3b ba 3c d1 83 40 3d fe b1 27 bd
       0.008378992 0.022733292 0.04700071 -0.04094123
0001d0 b4 67 bb bc a6 70 77 3c 19 b6 fd bc 48 7a cb bb
       -0.022876598 0.015102541 -0.03097062 -0.0062096454
0001e0 46 3f 13 bd 2e 73 b4 bc 14 18 71 bd 16 d5 96 3b
       -0.035949014 -0.022027578 -0.058860853 0.0046030385
0001f0 1a 1b 57 bd 5c c4 69 3b f5 75 45 ba f6 e3 20 3c
       -0.05251608 0.0035670018 -0.00075325306 0.009819975
000200 9a 0d 71 3d bb 00 4a 3c 1d 55 ad b9 60 2c 61 3c
       0.058850862 0.012329276 -0.00033060546 0.01374349
000210 8d 9d 6e bd bc 8f cb 3c c5 40 54 3b 85 58 72 bd
       -0.05825572 0.024848811 0.0032387238 -0.05916645
000220 fd 88 15 3c c1 c0 4c 3d 82 66 b8 3b a3 1f 0e bc
       0.009126899 0.049988512 0.0056274543 -0.008674535
000230 b0 9a 82 bb 78 1e a0 bc 2e ff ca bc 80 04 15 3c
       -0.0039857253 -0.019545779 -0.024779882 0.009095311
000240 83 4e fb 3c a1 63 54 3d 16 72 12 bd aa f6 ca bc
       0.030677086 0.051852826 -0.035753332 -0.024775822
000250 f1 b4 6e bd f1 9a 3d bd 9a d1 3b bd 8b 5a f7 bc
       -0.058278028 -0.04629034 -0.04585419 -0.030194541
000260 a7 74 29 3d 5e b0 02 3d 34 ab 02 bd da 4a 8c 3b
       0.041371014 0.031906478 -0.031901553 0.004281384
000270 60 90 d0 bc b9 dd 26 bd d2 10 00 bb f7 f0 6c bc
       -0.025459468 -0.040738795 -0.0019541276 -0.014461747
000280 f3 e8 48 bd fb 57 d8 bc a6 f6 4a 3d c9 3c dd 39
       -0.049050283 -0.02640914 0.04955163 0.00042197693
000290 79 4b f1 bb e9 8a 08 bc 03 b9 6d bd 63 78 d2 bc
       -0.0073637334 -0.0083339 -0.05803777 -0.02569217
0002a0 3a e8 17 bb 67 84 65 3c a3 86 65 3b b8 0d 3b bd
       -0.002317919 0.014008618 0.0035022877 -0.04566738
0002b0 48 87 b0 bc 75 a1 f3 3c 4e 39 b1 bc d5 ae 25 3d
       -0.021548882 0.029740075 -0.02163377 0.040449936
0002c0 c9 86 05 bc d0 c1 4b bc 35 1a 12 3d 41 7d 7b bc
       -0.008149811 -0.012436345 0.035669524 -0.015349687
0002d0 2c 29 08 bc e0 2e 06 bd 66 83 19 bc d1 f4 40 39
       -0.008310597 -0.032759547 -0.009369707 0.00018401748
0002e0 a3 16 a0 ba 58 fa 3b 3c ff ee bb bb 04 eb 5f 3d
       -0.0012213778 0.011473261 -0.0057352777 0.054667488
0002f0 89 a3 57 3d 84 bd 3e bc e0 ef 27 bb d5 24 4d 3b
       0.052646194 -0.011641864 -0.0025625154 0.0031302471
000300 90 af 41 bd a2 30 46 bc a9 4b 79 3b 1d 5c 53 3d
       -0.04728657 -0.012096556 0.0038039482 0.051601518
000310 23 fd 4f bd f4 65 75 3d f1 a9 68 bd 2c 63 3a 3d
       -0.05077852 0.059911683 -0.056802694 0.045504734
000320 c0 9a 5e bd 1e 41 b4 bc f0 84 bd bc 03 be c3 3c
       -0.0543468 -0.022003707 -0.023134679 0.023894316
000330 2f 81 42 3d 20 89 37 bc ef 48 15 3d 5c e1 6a bc
       0.04748648 -0.011202127 0.036446508 -0.014335956
000340 ec c9 e6 3c c0 b4 b3 3c 72 24 5c bb e3 3e 44 3d
       0.028172456 0.021936774 -0.003359106 0.047911536
000350 50 7c 56 3d 78 30 ec 3a f1 4e 10 3c d0 12 6a bc
       0.052364647 0.0018019816 0.008807884 -0.014286712
000360 c3 47 00 3d 5a 50 1b 3d 75 cb 98 3c 87 f4 21 3d
       0.031318437 0.037918426 0.018651703 0.03953984
000370 4b ed 15 bd 9e 6e f4 3b 8f 49 0d 3d 6d 6a ed bb
       -0.036603253 0.0074594757 0.03449398 -0.007245353
000380 f9 53 97 3b b9 bb 65 3d d1 57 f3 3c 3c 43 f0 3a
       0.0046181646 0.05608723 0.02970496 0.0018330584
000390 66 1f 9d 3c bc 54 72 bd 82 cd 90 bc 38 78 25 bd
       0.019180011 -0.05916284 -0.017676119 -0.040397853
0003a0 93 31 60 3c 55 da 42 bd d3 b0 5e bd 49 bb 1f 3c
       0.013683694 -0.0475715 -0.05436785 0.009749242
0003b0 b6 52 35 3d 27 4d d1 bc 06 64 27 3d ef d6 12 3d
       0.044268332 -0.025549484 0.040866874 0.035849508
0003c0 b4 8a ea bc d9 c5 22 3b 1d f4 a8 bc 90 cc 4c 3d
       -0.028630592 0.0024837165 -0.020624215 0.049999774
0003d0 a4 a5 15 3d a8 bd bc bb 78 cb 25 3c 6b 91 3b bc
       0.03653492 -0.0057599135 0.0101193115 -0.011448245
0003e0 78 d9 3e 3c 8d 19 35 bd ff 59 54 3a 17 aa 91 3d
       0.011648528 -0.04421382 0.00081005687 0.0711252
0003f0 49 eb 9d bc aa 4f 60 3d 71 20 11 bd 93 3a cd 3c
       -0.019277232 0.054763474 -0.03543133 0.025052344

base_model.model.transformer.h.1.attn.c_attn.lora_B.weight f4 [2304, 4]
000000 1e f7 58 bc 38 15 45 bc fc f9 86 bc 4e c4 53 3c
       -0.013242511 -0.012028985 -0.016476624 0.012925221
000010 3b 96 d1 ba 57 e7 04 3a a1 e1 d3 3a f4 b6 25 bb
       -0.0015990207 0.0005069873 0.0016165265 -0.002528605
000020 5b 30 de bb 97 5d 57 bc 95 ec 25 bc b4 15 7b 3c
       -0.0067806668 -0.013144872 -0.010127206 0.015324999
000030 07 e3 8b bb 70 31 8c bb 09 43 b3 bb 14 b8 c8 3b
       -0.004269007 -0.0042783543 -0.0054706377 0.0061254594
000040 ce 2f fa 3a b4 b4 a3 b9 f3 44 82 3a 5f f7 b6 ba
       0.0019087733 -0.00031224417 0.0009938761 -0.001395922
000050 d3 03 a4 bb b6 d1 1f 3b c6 1c 2c bb 6b 25 c9 ba
       -0.0050053387 0.0024386472 -0.0026262267 -0.0015346234
000060 dd c8 1c bc 8d 41 45 bc 2c 1c 4f bc d0 0e 39 3c
       -0.009569374 -0.012039554 -0.012640994 0.0112950355
000070 ae 2f 03 bc 2d 24 2d bc bb ff 2c bc 28 b7 6b 3c
       -0.008006973 -0.010567707 -0.010559018 0.01438693
000080 81 f5 c0 ba ca af 0d 39 ae c0 52 ba 65 05 b7 3b
       -0.0014721603 0.00013512294 -0.0008039576 0.00558536
000090 d3 50 e3 ba fb 0e 96 3b 7b c3 93 3a 48 06 c2 bb
       -0.0017342813 0.0045794225 0.0011273468 -0.005921159
0000a0 90 53 c5 3a f6 49 8d b9 46 c6 27 b9 3a e6 29 3b
       0.0015054811 -0.0002694872 -0.00016000224 0.002592458
0000b0 38 6f 39 3b a8 95 d4 3b 85 cf 74 3b 2e e9 fd bb
       0.0028295051 0.006487567 0.0037355137 -0.0077487445
0000c0 c8 43 ef ba 8b 13 f2 ba 07 fd 7b bb 5e 06 32 3b
       -0.0018254453 -0.0018468959 -0.0038450377 0.002716444
0000d0 3a 45 d7 bc 3a e7 df bc 63 75 00 bd 55 84 e0 3c
       -0.026278127 -0.027331937 -0.03136195 0.02740685
0000e0 27 88 2d bc f3 b2 fd bb 32 83 20 bc bd bd ae 3a
       -0.010591543 -0.0077422797 -0.009796904 0.0013331693
0000f0 76 40 d7 bb 68 86 28 bb b2 44 bb bb 98 10 20 3a
       -0.0065689636 -0.0025714878 -0.005714976 0.0006105988
000100 74 68 48 bc e8 0d 86 bc f3 16 44 bc 1b e3 4d 3c
       -0.012231935 -0.016364053 -0.011968362 0.012566353
000110 f7 4f 53 bb a7 a9 fb ba d7 04 9c bb ef a4 4a 3b
       -0.0032243708 -0.0019200341 -0.004761319 0.0030921062
000120 12 64 05 3a fd 5a 80 bb 19 7c ad bb d3 1d ec 3a
       0.0005088459 -0.0039170966 -0.0052943346 0.0018014259
000130 d3 ff 4d 3c 70 9f 6a 3c 12 c5 6d 3c 83 80 fa bb
       0.0125732 0.014320239 0.014512317 -0.0076447143
000140 b3 05 9d bb fc 18 46 bb 0e 4f b4 bb 65 aa ba 3b
       -0.004791939 -0.0030227294 -0.005502588 0.005696582
000150 91 4e 7f bc 54 f1 0a bc 6a 54 53 bc 02 fd f6 3b
       -0.015582697 -0.008480389 -0.012898544 0.007537485
000160 29 a5 50 3c a0 6f 41 3c 5a e2 44 3c 85 09 32 bc
       0.01273469 0.011806399 0.012016857 -0.010866527
000170 1a 1f 1d bb 1f 02 fe 3a e3 fa 3b bb 35 b5 3a bb
       -0.0023974837 0.0019379294 -0.0028683476 -0.0028489355
000180 dc 88 62 bb 06 60 8f bb 29 d1 2f 3a 7a 4c e4 3b
       -0.0034566438 -0.0043754606 0.00067068875 0.0069671245
000190 e6 02 39 bc 61 38 00 bc b0 d4 d3 bb 9d 8f a1 3b
       -0.011292195 -0.007825942 -0.0064645633 0.00493045
0001a0 f0 06 1b bb 1f 1d 1f bb 28 0a 9e bb 43 86 eb ba
       -0.0023655258 -0.0024278832 -0.004822988 -0.001796909
0001b0 1c a1 39 ba ae 72 b0 ba c5 c8 df 39 04 ce 60 bb
       -0.0007081197 -0.0013461912 0.0004268346 -0.0034302482
0001c0 66 57 a4 3b 60 4a c2 3b f2 9b a7 3b 16 db ac bb
       0.0050153015 0.0059292763 0.0051150257 -0.0052751405
0001d0 59 2b fb 3a 4d 1f a7 ba 0b 1a 06 3b 74 bc 14 b9
       0.0019162699 -0.0012750417 0.00204623 -0.00014184584
0001e0 f3 5f 1d 3b bc 3b d3 3a ee 4f 93 3a f0 cc ab 3b
       0.002401349 0.0016115825 0.0011239031 0.0052429363
0001f0 fe 7a 1e bc 3b 9d 4b bc 54 3d 56 bc da 73 47 3c
       -0.009672878 -0.012427623 -0.013076145 0.012173617
000200 ed 18 89 b9 69 80 8e 3b ad 78 dc 3a 22 9f fa bb
       -0.00026149247 0.004348804 0.0016820632 -0.0076483646
000210 02 fd b5 3a 3e f8 b3 bb d8 c3 98 3a dc 34 a5 3b
       0.0013884606 -0.0054922393 0.0011655046 0.0050417017
000220 38 06 72 3b ba ae 30 3c b0 83 c9 3b 62 e2 00 bc
       0.0036929976 0.010783846 0.0061497316 -0.007866474
000230 87 43 74 bc 66 1d 6d bc 30 8f 8e bc 7b d2 4d 3c
       -0.014908678 -0.014472341 -0.017402261 0.0125623895
000240 ee 7b 59 3b d6 46 0d bb 6e a9 1b bb 76 d4 be 3b
       0.003318544 -0.0021557114 -0.002375211 0.005823667
000250 68 67 fb 3b 22 55 30 3c 84 99 5e 3c 40 5d 19 bc
       0.007672239 0.010762485 0.013586406 -0.009360611
000260 6e 16 99 bb b8 98 36 bb 8b b1 dc 39 9d 29 91 bb
       -0.0046718633 -0.0027862024 0.0004209395 -0.0044300095
000270 d5 d4 81 3c 63 af 9a 3c 4b b4 bb 3c 3c bc a4 bc
       0.015848557 0.018882459 0.022913119 -0.020109288
000280 5e f2 1e b8 fd 0e 49 3b cf be 07 b9 87 3c aa bb
       -3.7895858e-05 0.00306791 -0.00012945685 -0.0051952037
000290 c1 24 d7 bb 88 a9 eb bb 6b 9d bc bb 93 9d 81 3b
       -0.0065656607 -0.0071918406 -0.0057560704 0.003955552
0002a0 de 47 ba bc 22 36 bb bc 32 f6 df bc ab b7 a8 3c
       -0.022739347 -0.022852961 -0.027339075 0.020595392
0002b0 6e 35 21 bc ab 0b cd bb f3 19 13 bc af f6 68 3b
       -0.009839399 -0.0062574944 -0.008978355 0.0035547426
0002c0 19 fb 4a 3c 5b 95 13 3c 46 43 8c 3c fb 16 ff bb
       0.012388968 0.009007777 0.017121922 -0.007784722
0002d0 7e cc 7f 3c 59 74 30 3c d7 d3 24 3c 3f f3 b9 bb
       0.01561272 0.010769927 0.010060272 -0.005674749
0002e0 c5 cc e5 bb 65 11 16 bc d8 99 26 bc bf d1 e7 3b
       -0.007012936 -0.009159421 -0.010168515 0.007074564
0002f0 5f a4 55 bb f8 ce a1 bb 33 5a eb bb 9d 26 f1 3b
       -0.0032599194 -0.0049380027 -0.0071823834 0.0073593394
000300 78 ab 9b 3b 8e 24 6c 3b 9c f7 5c 3b 26 b0 af 3a
       0.0047506653 0.003603253 0.0033716923 0.0013403937
000310 3e b4 38 3c dd da 1f 3c 18 89 3d 3c ed 79 01 bc
       0.011273442 0.009756771 0.01156833 -0.0079026045
000320 f0 68 b2 bb e6 47 ac bb 43 00 e8 bb 6f 84 82 3b
       -0.0054446384 -0.0052575944 -0.0070801093 0.0039830725
000330 2b 50 ca bb 41 02 b8 bb 6d 12 16 bc 24 68 13 3c
       -0.0061741075 -0.005615503 -0.0091596665 0.008996997
000340 d0 6a e8 3b 83 5b 55 3b ea ee 12 3c 96 c8 8c ba
       0.007092811 0.0032555766 0.008968094 -0.0010740932
000350 a4 a4 ab bb ca 04 13 bc f2 e1 38 bc 02 20 4a 3c
       -0.0052381326 -0.00897331 -0.011284338 0.012336733
000360 7e 61 21 bb b2 eb e9 b9 72 11 00 bb 6e ed 74 3b
       -0.002462476 -0.0004461683 -0.0019541648 0.0037372964
000370 06 d0 34 3b 48 6a 52 3b b6 a9 0d 3c df 7c a2 ba
       0.0027589812 0.0032106806 0.008646419 -0.0012396834
000380 56 e5 3d bc 19 09 10 bc 86 22 52 bc f5 67 3d 3c
       -0.0115903225 -0.008791232 -0.012825614 0.01156043
000390 b0 99 14 3c b1 be 1e 3c 77 38 39 3c bd 19 4f bc
       0.009069845 0.009689019 0.011304966 -0.012640414
0003a0 a1 0d a3 bb 50 83 93 bb 54 b3 07 bc 22 28 af 3b
       -0.00497599 -0.0045017377 -0.008282501 0.0053453604
0003b0 54 b4 8f bc bc 0b 81 bc a5 7c 93 bc 9a e2 6f 3c
       -0.017542042 -0.015752666 -0.018003771 0.014641428
0003c0 03 b9 f4 3b d6 68 06 3c 56 3c f8 3b 33 40 6c bc
       0.007468344 0.008203706 0.007575552 -0.014419603
0003d0 a3 a0 3a 3c d9 75 52 3c b2 15 7d 3c 99 14 84 bc
       0.011390838 0.01284548 0.015447067 -0.016123103
0003e0 5d d7 90 3a e9 cf 0d bb af 41 52 bb 79 c8 d7 3b
       0.0011050511 -0.0021638817 -0.0032082608 0.0065851775
0003f0 6b 78 8a 3b c0 4c 93 3b 0a b7 d1 b9 6d 8d db b9
       0.0042257807 0.0044952333 -0.0003999996 -0.00041876305

base_model.model.transformer.h.10.attn.c_attn.lora_A.weight f4 [4, 768]
000000 28 46 0e bb 49 b7 e0 bb 21 cd 27 3d 3f db 61 3d
       -0.0021709297 -0.006857787 0.04096711 0.05514073
000010 c2 3e 98 bc 75 e8 1b b9 1d d3 d4 3c 57 e9 f6 3c
       -0.018584613 -0.00014868549 0.025979573 0.030140562
000020 39 d0 86 3d 7a 7d 83 bd 00 39 fe bc d3 ac 98 3c
       0.06582684 -0.06420417 -0.03103304 0.018637097
000030 b1 ed 9a 3c b8 4d ff 3b cd be db bc df ba 4a 3b
       0.018912168 0.007791247 -0.02682438 0.0030934138
000040 2b b1 3f 3d dd a9 a8 3a 30 1f 43 bd 68 f6 3e 3d
       0.04679982 0.0012868006 -0.047637165 0.04662171
000050 9c 59 fb ba 8e 42 ab 3c 39 d0 81 bc 11 d8 0c bd
       -0.0019176486 0.02090576 -0.015846359 -0.034385744
000060 e6 5f 75 bd 36 63 8b 3c 17 1f 1e 3c 01 63 ce bc
       -0.05990591 0.01701508 0.009650967 -0.025193693
000070 b7 e5 a6 3c be 40 7b 3c 0f 95 d3 3c c1 c9 3a 3d
       0.020373208 0.01533526 0.025827913 0.045602564
000080 30 2c 4f 3d 38 f6 40 bc 31 85 1e 3d 4b 11 f4 3b
       0.05057925 -0.011777453 0.03870124 0.0074483505
000090 0f 70 bf 3c 89 45 dd 3c 9f 3e 75 3d 4e 22 31 bd
       0.023368863 0.027010696 0.059874173 -0.043245606
0000a0 07 00 70 3d 6f f2 96 bb 94 76 4b 3d f9 e1 9d bc
       0.058593776 -0.004606537 0.04967363 -0.019272791
0000b0 c0 43 36 bd 3b 97 b5 3b 2d 98 5e 3d 14 35 df bc
       -0.044498205 0.0055417097 0.054344345 -0.02724699
0000c0 ce 67 cb 3a 09 4f 96 3c 95 9d 80 3a 2f 96 21 ba
       0.0015518607 0.018348234 0.0009812588 -0.00061640417
0000d0 cd 36 38 3d bd 94 e2 3b 7f 20 66 3d 56 d6 23 bd
       0.044974137 0.0069147036 0.056183334 -0.03999933
0000e0 44 7b af bc 98 c4 82 3c 44 23 88 bc c1 ff 35 bc
       -0.021421082 0.015962884 -0.016618378 -0.01110834
0000f0 dd 6d 0a 3c aa 58 62 3c 25 7b 25 3d fd a4 76 bd
       0.008449045 0.0138150845 0.040400643 -0.06021594
000100 ba bc d5 3c 85 e9 58 3c 27 91 8a 3c 89 98 f7 3c
       0.026090968 0.013239269 0.016914917 0.030224102
000110 90 ed 32 3d 82 a0 17 bc 24 27 7a bc bb c3 5c bc
       0.04368359 -0.009254577 -0.015268121 -0.0134744
000120 7e e6 6b bd e2 a6 4f bd e6 56 29 3c f1 8e 8b bd
       -0.05759286 -0.05069626 0.01033566 -0.06814373
000130 0c d1 8d 3a 91 46 03 bd 11 9e 6c 3d 39 3b 5a bd
       0.0010819747 -0.03204972 0.05776793 -0.053279135
000140 85 fd 18 3b e2 c7 4a bd a2 1b f0 bc 02 b4 e1 3c
       0.0023344469 -0.04950703 -0.029310051 0.027551655
000150 0b 77 31 3c 89 ff ae 3c b3 85 05 3d db 27 dd 3c
       0.010831605 0.021362083 0.03259821 0.026996544
000160 08 b9 54 3c fa 8d e8 bc 8a 49 1b 3d 07 cf 83 bd
       0.012983568 -0.028388012 0.03791193 -0.06435972
000170 02 e1 91 bc 5e fb d3 3c 38 75 2a 3d 5d af ee 3a
       -0.017807487 0.025876697 0.041615695 0.0018210221
000180 af b6 54 3d bf 56 8b 3c b3 63 25 3d c5 bc 5b ba
       0.051932033 0.017009137 0.040378284 -0.0008382316
000190 e9 e3 03 3d 70 21 63 bd f9 37 c8 bc 4c a0 75 bb
       0.032199774 -0.05545181 -0.024440752 -0.0037479578
0001a0 b9 d6 81 bd ab 8d ef ba bd d3 20 bd 21 a1 ba 3c
       -0.06339783 -0.0018276473 -0.03926443 0.02278191
0001b0 78 d1 83 bd 2b 0a 23 3c eb 41 bf 3c 1e 9b 37 3c
       -0.06436437 0.009951155 0.023346862 0.011206416
0001c0 1e 11 eb 3a 6b 04 e8 3c 08 85 9a bb e9 2a 29 3d
       0.0017934178 0.02832242 -0.0047155656 0.041300688
0001d0 67 86 08 3d 8a 56 1e bd 9a de 33 bd cd 29 80 bd
       0.0333313 -0.03865675 -0.04391346 -0.06257973
0001e0 7d de 8f 3c 49 62 6d bc 90 dd 82 bd 4c be 62 3d
       0.017562145 -0.014488765 -0.06389916 0.055357262
0001f0 07 eb c5 3c c2 4c c6 bc 13 76 1a 3d 03 5b a3 3c
       0.024159921 -0.024206523 0.03771026 0.019940859
000200 7b 49 ca bb 18 8f c9 bb 08 ae 93 3d 79 db ea bc
       -0.0061733103 -0.0061510913 0.07210928 -0.028669106
000210 e4 9d ec 3a 90 b3 f7 ba 98 2d 26 bd ce 94 81 3d
       0.0018052426 -0.0018898118 -0.040570825 0.0632721
000220 38 71 3f bc 24 02 a2 bc 8b 89 a4 bc 8d d5 26 bc
       -0.011684708 -0.019776411 -0.020085117 -0.01018275
000230 9f 0b 2c bc 49 75 2b 3d 1c ca b4 bb b3 8b 5c bd
       -0.010500818 0.0418599 -0.0055172574 -0.053844165
000240 4c 82 5b bd 1b 79 04 bd 62 15 e7 3b ee e1 7d bc
       -0.053591058 -0.032342058 0.0070521096 -0.01549576
000250 a5 2d c4 ba 38 ad f0 ba fe 6d 4a 3c 17 17 c1 bb
       -0.0014967216 -0.001836217 0.012355326 -0.005892645
000260 a1 12 e7 3c 68 ee 77 3b 5b 7b c7 bc d3 a4 65 37
       0.028207125 0.003783131 -0.024350813 1.368784e-05
000270 6f 05 50 bc c4 48 71 bd 0f 8d 05 bd db 00 55 bc
       -0.012696608 -0.058907285 -0.032605227 -0.013000692
000280 86 08 59 3c fc cc 9e bc a2 86 ff bb c7 dc 01 3d
       0.013246661 -0.019384854 -0.007798032 0.03170469
000290 8a 55 03 bd 05 67 6e 3c 16 5d f8 3c 7e dc 21 3d
       -0.032064 0.014550929 0.030317824 0.03951692
0002a0 da 24 c9 bc d1 4b bf bc be 06 3c 3d ad b8 d1 3b
       -0.024553705 -0.023351582 0.045904867 0.006400189
0002b0 ff 22 85 3c ad 42 e5 bc be 13 1f 3c 73 d1 80 3d
       0.016252039 -0.027985895 0.009709297 0.06289949
0002c0 93 53 b4 3c 3b 8e 86 bc 31 c1 52 bc cc b8 1e bb
       0.022012508 -0.016425243 -0.012863443 -0.0024219034
0002d0 b7 27 03 bd b5 9c 36 3c de 38 f9 3c 78 a2 8a bc
       -0.032020297 0.01114576 0.030422624 -0.016923174
0002e0 b9 9d 0b 3c 73 d8 22 bb 98 37 6a 3d b3 7d ba bc
       0.008521491 -0.0024848252 0.057181925 -0.022765016
0002f0 03 9c 22 bd cd fd 92 3c ae a5 d0 bc 93 9f a7 bb
       -0.039699566 0.017943287 -0.025469627 -0.0051154583
000300 60 8a 41 3c 95 7c 82 bd 35 db 68 3c 2e 2b 7f 3d
       0.011812776 -0.063714184 0.014212419 0.06229704
000310 eb 9f 50 3d 5e 25 43 bd 79 d6 4a 3d 64 74 21 bc
       0.05093376 -0.047643058 0.049520943 -0.00985441
000320 7d be 40 bd 33 6c 28 bd f1 5b 6e 3c 83 42 1d bc
       -0.047056664 -0.04111881 0.014548288 -0.009598377
000330 bb b1 13 bd ec 44 18 3d 65 05 17 bb d3 4f fa bc
       -0.03605817 0.037175104 -0.0023043987 -0.030555641
000340 63 52 24 bc e8 36 51 bd d6 e7 63 3d ec e0 6d 3d
       -0.010029408 -0.051077753 0.055641018 0.05807583
000350 a8 b0 6d bd 1c dd 9a 3a f9 8c 0a 3c c6 01 c8 bb
       -0.0580298 0.0011815163 0.008456462 -0.006103727
000360 05 d6 bb bb d8 b4 14 bb 2d 48 91 bc 2b 6e 4f bb
       -0.0057323 -0.00226908 -0.017734611 -0.0031651359
000370 e7 a6 8b 3d eb 78 cc bc 87 2f 80 bd 63 73 41 3d
       0.068189435 -0.024960002 -0.06259065 0.047229182
000380 b7 42 09 3d 61 5b 03 3d 29 25 fe 3c f8 bd 0e 3d
       0.03351089 0.032069568 0.031023579 0.034849137
000390 eb a2 55 3c 25 8b 2a 3d a6 d0 41 3d e6 30 b6 3c
       0.013039331 0.041636605 0.047318123 0.022240113
0003a0 25 43 83 bd 9e 40 80 3b 8c 57 53 3d 1d 83 95 3b
       -0.06409291 0.003913953 0.051597163 0.004562749
0003b0 8c e4 3b 3d de 15 2e bb 67 21 ea 3c 79 c5 31 bd
       0.045872256 -0.0026563327 0.02858038 -0.043401215
0003c0 bf 64 cd 3c a0 a0 6c bd c6 b8 1c 3d 25 6e 20 bd
       0.025072454 -0.05777037 0.03826215 -0.039167542
0003d0 13 78 46 3d e0 e6 72 bd e7 f4 44 bd 9a c4 b1 3c
       0.048454355 -0.05930221 -0.04808512 0.021700192
0003e0 c5 57 57 bc e7 2e 1b 3d cc be 0c 3d 5b e4 eb bc
       -0.0131434845 0.037886526 0.034361646 -0.028795412
0003f0 33 36 b0 bc 1c 84 33 3d fc 6a 4c bb da 6d a4 3a
       -0.02151022 0.04382716 -0.0031191697 0.0012544945

base_model.model.transformer.h.10.attn.c_attn.lora_B.weight f4 [2304, 4]
000000 fc a7 65 3b 8d e1 52 ba f9 ca 0b 3b 8c f1 4c bb
       0.0035042753 -0.0008044474 0.0021330698 -0.0031271903
000010 2e ea b0 3b 47 4d de b9 a4 d4 92 bb 61 fd ae b9
       0.00539901 -0.00042400716 -0.004480915 -0.00033376648
000020 60 8e f8 3b 55 62 80 3b 8d 62 74 bb 19 75 e7 bb
       0.007585332 0.003917972 -0.0037290186 -0.0070635197
000030 3a 48 91 ba bd 20 87 bb ca 05 84 b7 31 ff bc 3b
       -0.0011084147 -0.0041237758 -1.5738322e-05 0.005767726
000040 46 71 7d 3c 7c d0 1e 3c f6 13 60 bc a4 41 83 bc
       0.015468901 0.009693261 -0.013676634 -0.01602251
000050 27 3b d6 3a 8d b7 9d ba 7d 45 4d ba 6c 12 1a bb
       0.0016344533 -0.0012032852 -0.0007830484 -0.0023509515
000060 39 b7 19 3c 15 61 75 3b ea 8a 16 bc 36 fc 37 bb
       0.009382063 0.0037441899 -0.009188393 -0.0028073913
000070 c3 ad 13 3c 5d 0c 78 3a b9 f1 01 bc b2 2c 12 bb
       0.009013596 0.00094622915 -0.007931166 -0.0022304473
000080 24 c3 57 bc 22 2a ad bb fa 52 3a 3c 36 df de 3b
       -0.013169084 -0.0052845636 0.011372322 0.006801511
000090 04 ae 70 bb 27 58 1d bb 62 5a 23 3b cd eb 4c 3b
       -0.0036724815 -0.0024008842 0.0024925699 0.0031268478
0000a0 0b f9 57 bb 45 18 00 bc b1 78 00 3c 6b cc f5 3b
       -0.0032954838 -0.007818286 0.007841275 0.007501175
0000b0 c2 89 04 bc 19 55 76 37 7e e3 de 3b e5 c8 96 b9
       -0.008089485 1.4682556e-05 0.0068020215 -0.00028759908
0000c0 e2 9c de bb a4 6b 1b bc 58 b3 44 3c 4e 4e 22 3c
       -0.006793604 -0.009486113 0.0120056495 0.009906365
0000d0 eb a2 37 bc 55 4d 80 bc 51 39 77 3c e4 b6 84 3c
       -0.011208276 -0.015661875 0.015089349 0.01620049
0000e0 ea 21 c5 3b 64 1a 46 3b 22 ad 0f bc cd e5 e4 ba
       0.0060160058 0.0030228132 -0.008769305 -0.0017463506
0000f0 c5 2b 41 3b cb c5 eb 3b 49 56 d0 bb db 2b f3 bb
       0.0029475552 0.0071952096 -0.0063579422 -0.0074209995
000100 e1 88 1a bc 94 a7 06 bc 38 96 4c 3c 69 3d 01 3c
       -0.009432049 -0.008218665 0.012486987 0.0078881765
000110 32 2c 9b bb 12 b0 1e bc ca 75 83 3b d1 cf 21 3c
       -0.004735493 -0.009685533 0.0040118443 0.009876207
000120 c3 5d 92 bc a6 0d a3 bc 58 a2 af 3c 12 bc a9 3c
       -0.017866975 -0.019903969 0.021439716 0.020719562
000130 6f d9 22 bc 88 4d ef bb 53 80 18 3c 0a 37 15 3c
       -0.0099395355 -0.0073029436 0.009307939 0.009107361
000140 3c 85 0a 3b 07 7a c4 3b 44 1a 0e 37 a9 72 05 bc
       0.0021136543 0.005995992 8.469975e-06 -0.008145013
000150 ac 9f 1d 3b 7b a2 aa ba ac de 85 3b 37 40 ef ba
       0.002405147 -0.0013018394 0.0040853824 -0.001825339
000160 e3 b1 ee 3c 42 50 e8 3c 7f 60 f0 bc b8 e0 d5 bc
       0.029137557 0.028358582 -0.029342888 -0.02610813
000170 3c b5 4d 3c ab 79 6b 3c 3f 9b 81 bc 8d f6 68 bc
       0.012555417 0.01437227 -0.015821097 -0.014218939
000180 e7 c8 6c ba 65 13 16 bc 43 29 ae 3b 56 67 18 3c
       -0.00090326223 -0.009159897 0.0053149774 0.009301981
000190 c9 92 ad ba 97 04 c5 3b 77 ae be ba 9a 21 db bb
       -0.0013242598 0.00601251 -0.0014547844 -0.006687355
0001a0 b3 24 a3 3a 15 9c 1d 3b b3 f8 d2 bb 17 14 0a b9
       0.001244685 0.002404933 -0.0064383387 -0.0001316819
0001b0 43 2e d7 3a 88 0f 01 bc 2b cf 06 3b 4b 78 f1 3b
       0.0016416985 -0.007877238 0.002057026 0.0073690764
0001c0 82 43 96 bb f2 43 da bb ef ca 87 3b 0c 5c 1a 3c
       -0.0045856843 -0.0066609317 0.0041440646 0.00942136
0001d0 e5 62 60 ba 3b 94 07 bb 10 04 18 bb fd 18 0a 3a
       -0.00085596583 -0.0020687717 -0.002319578 0.0005268006
0001e0 e0 d2 40 3b 3a ad a7 3b 0d 12 95 ba 61 d6 d4 bb
       0.0029422566 0.0051170858 -0.0011373177 -0.0064952825
0001f0 6b 0c 90 3a 59 a2 d7 bb 3b 75 b6 39 6e 76 f7 3b
       0.0010990029 -0.0065806326 0.0003480109 0.0075519597
000200 10 50 02 bb 51 dc d1 bb 29 e1 c2 3b 82 5e de 3b
       -0.0019884147 -0.0064044376 0.0059472513 0.0067861686
000210 d4 87 c6 3b 6b 15 ef 3b 0c 60 f6 ba b5 a6 1e bc
       0.0060586724 0.0072962544 -0.0018796935 -0.009683301
000220 c1 96 86 bb 10 10 e6 3a 55 9f 7d 3b 02 b2 1a bb
       -0.0041073267 0.0017552394 0.0038699706 -0.0023604636
000230 45 30 db 3b e4 29 28 3c 57 e9 0f bc 60 e1 07 bc
       0.006689104 0.010263894 -0.00878366 -0.00829348
000240 80 cb 78 ba fa df e6 ba b7 62 fc ba 8f 2d e3 3a
       -0.0009490773 -0.0017614358 -0.0019255494 0.0017332303
000250 b3 d5 32 bb 76 81 4f bb db 15 df 3b b9 af 48 b8
       -0.002728802 -0.0031662858 0.0068080253 -4.784737e-05
000260 af 83 6d 3c 04 92 93 3c 06 f7 85 bc 97 0c a1 bc
       0.014496728 0.018013962 -0.016353142 -0.019659324
000270 e3 63 b3 ba 20 86 d0 bb d8 93 fb 3a bd 9e d0 3b
       -0.0013686385 -0.006363645 0.0019193841 0.0063665793
000280 6e f6 ad bb 3a 50 39 bc 9e 13 19 3c 2c e2 09 3c
       -0.0053089177 -0.011310631 0.009343056 0.00841574
000290 66 4b 25 bc 65 31 ec bb 26 45 ca 3b ee 0d 1d 3c
       -0.010088777 -0.0072080367 0.006172794 0.009585841
0002a0 05 a7 0a bc 45 a7 e6 bb 9d ae f9 3b fd 05 fb 3b
       -0.008462672 -0.007038983 0.0076196925 0.007660626
0002b0 af 5b a2 3c 58 d9 88 3c 56 8c b9 bc 0e 9a 7e bc
       0.019819109 0.0167052 -0.022649925 -0.015539659
0002c0 5b cd 23 bc 0f c7 0d bc 45 fa 11 3c 9c bd e6 3b
       -0.009997691 -0.008653416 0.008909767 0.007041646
0002d0 23 1f b5 bb b7 3d 81 ba 4f bd 14 3b 80 c5 b6 3b
       -0.0055273934 -0.0009860311 0.0022695845 0.005577743
0002e0 33 a0 8e 3a 62 e2 df 3b 8e b3 c3 bb 8f 4b db bb
       0.0010881483 0.006832407 -0.0059723323 -0.006692357
0002f0 67 3c 00 3b 34 33 d3 3b 42 b9 b8 ba c9 89 8e bb
       0.0019567253 0.006445313 -0.0014093297 -0.0043499214
000300 5c 87 b0 3b f8 39 4c 3c 7f 4a 08 bc 31 36 5c bc
       0.00538723 0.012464993 -0.0083185425 -0.013440655
000310 56 64 24 bc 9d c1 45 bb 73 12 dd 3b 51 3e d6 3b
       -0.010033688 -0.0030175217 0.006746584 0.0065381904
000320 5f 64 2f 3c f5 a4 83 3c b7 62 82 bc 46 32 63 bc
       0.010705083 0.016069869 -0.015916212 -0.013866967
000330 c0 9b 1d 3c d6 e0 1f 3c 73 4b 2e bc 40 31 35 bc
       0.009619653 0.009758195 -0.010638106 -0.011059105
000340 3a fc ed bb 99 71 89 39 f7 cb 9c 3a b3 52 30 3b
       -0.0072627338 0.00026215313 0.0011962642 0.0026904761
000350 66 b1 c2 bb 29 c3 2a 3b e5 cb 38 3b 56 26 06 3b
       -0.0059415577 0.0026056266 0.0028197702 0.0020469627
000360 5c 02 85 bb f9 2d c4 bb 55 6d 34 3b ea e7 1a 3c
       -0.004059119 -0.0059869257 0.0027530987 0.009454707
000370 33 dc b6 b8 e6 be 04 bc ab 81 bf 3b 71 f5 c5 3b
       -8.7194516e-05 -0.008102154 0.005844315 0.006041222
000380 72 61 10 3c a8 54 9e 3b ad 60 b7 bb 31 24 ca bb
       0.008812295 0.004831869 -0.0055962414 -0.006168865
000390 f4 da 88 3b 5f 5e 2c ba 45 a5 e9 3a 2e 25 26 bb
       0.004176492 -0.00065753417 0.0017825743 -0.002535175
0003a0 fa 7b 9f 3c ff 41 c4 3c 08 a5 d5 bc e4 25 cf bc
       0.019468296 0.02395725 -0.02607967 -0.025286622
0003b0 1b ab 1b bc 19 3d 24 bc 96 d7 44 3c 08 e7 4f 3c
       -0.009501244 -0.010024332 0.01201429 0.0126893595
0003c0 c4 89 60 3a ef 2f bd bb bb d9 0e 3b fd 77 05 3a
       0.00085654506 -0.0057735364 0.0021797258 0.0005091427
0003d0 26 26 3a 3c 73 49 43 3c d3 d3 73 bc 70 e0 27 bc
       0.011361634 0.011919367 -0.014882046 -0.010246381
0003e0 52 46 44 bb 2d 06 67 3b fd 63 fb 3a 21 52 6f bb
       -0.002994914 0.0035251484 0.0019179579 -0.0036517459
0003f0 4f 04 04 bc c7 55 59 bc c0 8a 11 3c 41 da 2c 3c
       -0.008057668 -0.01326508 0.008883178 0.010550083
