insurance-chatbot-model-cpu/checkpoint-1950/adapter_model.safetensors (safetensors, 592848 bytes, 24 tensors)

base_model.model.transformer.h.0.attn.c_attn.lora_A.weight f4 [4, 768]
00000000: f345 0abb ce3a e33b b8a7 653d fcbe 0dbc
00000010: ef72 35bd 1bc0 793c d4be 4ebd 57eb 1ebd
00000020: 5177 6bbd ef83 f63c 7022 8b3c 6b18 23bc
00000030: e165 0aba 5418 09bd c103 aa3c 796f 6e3b
00000040: 666c 0dbd 417a 24bd 3749 33bc 3e0c 103d
00000050: 0943 1bbc 72f5 babc cd65 9a3d c424 69bc
00000060: 4316 123c 220a 15bc e767 003c bb8f 9e3c
00000070: 76ca afbc a93a 81bb 2b0f 233d d885 a1bc
00000080: ff38 89bd cad3 a33c 9883 2e3c 3046 f13c
00000090: 713a 62bd 8747 28bd a6f0 d9bb a0d4 033c
000000a0: 5e41 273d e5b6 083d c588 67bd e206 403a
000000b0: 973d 333d 9bb0 82bd 54a3 99bb 7e1a 5a3c
000000c0: c200 43b9 b991 d03b a8a3 72bd 9f3a 373d
000000d0: 2ffa 27bc 92bf eb3c eb2a d8bc 876a 44ba
000000e0: 81fe 083d e034 9cbc 04ae 2f3d 4680 823c
000000f0: 6a4e 193a b32e 38bd e54e 81bc 3c40 8a3b
00000100: 16ee 0c3c 20cf 743b 844b 08bd b725 28bd
00000110: b9b7 00bd a13b 8b3b 002d 7c3d 6041 e33b
00000120: 34ac 38ba 5d81 793d 60f9 643d 6d82 7b3d
00000130: 5cde 223d fdc6 7e3c 0657 efbc 6f3f 4bbd
00000140: c019 4abc fe66 f3bb 4350 d73c 3bf6 dabc
00000150: c072 bc3c 2762 53bc cf86 4dbd 9784 e53c
00000160: 419c 2b3c b24e 4dbd fc8a 13bd 053c bd3b
00000170: 2481 9b3b 0fa3 dd3c 7bdd 0f3a 86e3 83bd
00000180: a134 72bd a327 7eba 655f 8fbc 53a5 32bc
00000190: f833 093d 3ace a9bc 7911 2f3d 4830 b03b
000001a0: b1da c23b be2a 1a3d cfc1 223d 0ca8 c83b
000001b0: eff9 163d 9974 723d 9217 623c f072 27bd
000001c0: 66c7 8c3c ac62 783d ac28 8dbc 2552 09bc
000001d0: 331a d7bb 42c0 033d 02d5 403c 5dcd 933c
000001e0: f153 53bc 1ab2 703d fabc 17bd e714 0e3b
000001f0: a9b2 2cbd 66f0 8d3c 6687 b3bc d8a4 303d
00000200: cb5c 1e3c 6b08 b6bb 2bfb 2abd 047c 203c
00000210: 8445 8dbc 4411 503d d402 2e3d 80e7 eebc
00000220: 586c 09bc d746 e9bc 4eb5 fdbc b7a6 223d
00000230: b53c 46bd 1e67 d33c 2abd b33c 4577 1b3d
00000240: b688 553c c271 f3bc 2a1c 26bc 0e06 2e3d
00000250: 84fc 64bd e663 0f3c 47f3 38bd 6bd0 46bc
00000260: 8386 553d 5f6d 5cbd 9113 ef3c af76 b93c
00000270: a8a0 f93c 2326 5cbd f996 24ba 3480 4b3b
00000280: 9c92 03bd a7fe 7bbd 201d 90bb 2f37 1e3d
00000290: 13d2 47bd c370 863d 965b c6bc 19f9 28bc
000002a0: 4b72 f4bc f5b5 0e3d 98f4 37bd 1e85 713c
000002b0: 1ae0 1c3c 863f 89bd 1d41 4bba 1eef 68bd
000002c0: adef 52bd 5f35 65bb 0cf1 8c3c fe35 0a3d
000002d0: cc41 cfbc 339b 12bd a4b7 e6bc edd5 243d
000002e0: e6f6 c9bc 2aed 713d f1a4 64bd 8d7f 693d
000002f0: 22fa 64bc fd4c 3d3d 5cc8 1fbb 6ec6 e13c
00000300: cdaf c1bc efc8 19bc c279 1f3d c153 a83c
00000310: 81e7 d3bc d724 3ebd 8321 6cbd 9513 d1bb
00000320: 7084 cfbc 6a3b 313d 4e86 00bc b203 9d3b
00000330: 950e ce3c fb90 7cbc c22f c13c 18d8 273d
00000340: 92aa 863c d7c7 123d c5f7 263c e9fd 37bd
00000350: 2455 483d 7da1 27ba b986 7f3c fc7a 83bc
00000360: e7b8 a93b a19f 2ebd 7651 763d bafa 5e3c
00000370: 7bea 80bd ad42 09bc 6305 843a beb4 13bd
00000380: 13ec a639 d518 a63c 9d17 123d fe28 8f3c
00000390: 16a9 0bbc 915f febc e232 3dbd 82e8 7e3b
000003a0: 05be b5bc 9549 e2ba 6d8d e73b 7572 ffbb
000003b0: 2258 71bd e08e cfbb 6357 613d 7b9a 09bd
000003c0: 8f73 853d 7a08 3e3c 914e b93c 3599 cebc
000003d0: 3b63 71bd 6ca4 8e3b 44f2 c53c 1f9a 2d3c
000003e0: 1336 c3bc de41 543d c42e bdbc 7480 f23c
000003f0: da9b 8a3c 4dd5 e0ba a17a 793c c58e 35ba
-0.0021098822 0.0069345003 0.056068152 -0.008651491 -0.044299062 0.015243555 -0.050474957 -0.038798656
-0.057486836 0.030092208 0.016984195 -0.009954552 -0.00052794634 -0.033470467 0.020753743 0.003638236
-0.034527205 -0.040155653 -0.010942749 0.035167925 -0.009476432 -0.022822116 0.07538948 -0.014229957
0.00891644 -0.009096654 0.007837272 0.019355645 -0.021458846 -0.0039437604 0.039809387 -0.019717142
-0.06700324 0.01999845 0.010651492 0.029452413 -0.055231515 -0.04108384 -0.006651002 0.008046299
0.040833823 0.033377547 -0.056526918 0.00073252444 0.04375991 -0.06381341 -0.0046886597 0.01331198
-0.00018596931 0.0063650277 -0.059238106 0.04473364 -0.0102525195 0.028777871 -0.026387652 -0.00074926805
0.03344584 -0.019068182 0.042890564 0.015930306 0.00058481714 -0.04496641 -0.01578469 0.004219083
0.008601686 0.0037354901 -0.033275142 -0.041051593 -0.03142521 0.0042490517 0.061566353 0.0069352835
-0.0007044703 0.060914386 0.055901885 0.06140368 0.03976284 0.015550372 -0.0292163 -0.049621042
-0.012335241 -0.007428049 0.026283389 -0.02672874 0.023003936 -0.012901819 -0.05017739 0.028017325
0.010474266 -0.050123878 -0.036021218 0.005774977 0.0047456194 0.027055291 0.000548802 -0.06439881
-0.059132222 -0.00096952374 -0.017501542 -0.010903674 0.033496827 -0.02072822 0.042741273 0.0053768493
0.00594648 0.03763842 0.03973561 0.0061235484 0.03685945 0.059193227 0.013799565 -0.040881097
0.017184924 0.060640976 -0.017231308 -0.008381401 -0.0065644025 0.032165773 0.011769535 0.01804226
-0.012898431 0.0587636 -0.037045456 0.002167994 -0.04216257 0.017326545 -0.021915149 0.043125957
0.009665678 -0.0055552027 -0.04174344 0.009795193 -0.017245062 0.050797716 0.042483166 -0.029163122
-0.008387648 -0.028476162 -0.030970242 0.039709773 -0.04839774 0.025806006 0.021940786 0.03795554
0.013033083 -0.02971733 -0.010138551 0.042486243 -0.05590488 0.008751845 -0.045153882 -0.012134652
0.052130233 -0.053815242 0.029184135 0.0226396 0.030472115 -0.053747308 -0.00062786 0.0031051757
-0.03212224 -0.061522152 -0.004398003 0.038626846 -0.048784327 0.06564476 -0.024213593 -0.010313296
-0.029839655 0.034841496 -0.044910997 0.01474121 0.009574914 -0.06701569 -0.0007753538 -0.056868665
-0.051498104 -0.0034974439 0.017204784 0.033742897 -0.02529993 -0.03579254 -0.028163739 0.040243078
-0.024653863 0.059064068 -0.055821363 0.057006408 -0.013975652 0.046216 -0.0024380898 0.027560439
-0.023643399 -0.009386285 0.038934477 0.02054775 -0.025867226 -0.046421852 -0.057649147 -0.006380508
-0.025331706 0.043269552 -0.007844521 0.0047917003 0.025153438 -0.015415425 0.023582343 0.040977567
0.016438756 0.035835113 0.010190909 -0.044919882 0.04890932 -0.0006394608 0.015596085 -0.016049854
0.005179513 -0.042632703 0.06013628 0.013609583 -0.062947236 -0.008377713 0.0010072406 -0.03606104
0.00031837876 0.020275513 0.03566705 0.017475601 -0.0085242 -0.031051429 -0.046191104 0.003889591
-0.022185335 -0.0017264361 0.00706642 -0.0077956268 -0.05892194 -0.0063341707 0.05501498 -0.03359459
0.06516182 0.011598701 0.022620471 -0.02521954 -0.058932524 0.0043530967 0.024163373 0.010595827
-0.023829496 0.05182063 -0.023093589 0.029602267 0.016920019 -0.0017153412 0.015226991 -0.00069258764

base_model.model.transformer.h.0.attn.c_attn.lora_B.weight f4 [2304, 4]
00000000: 56df 07bc a194 9dbb 7bcd 90bb 8371 193c
00000010: bd86 583c 5dff 1d3c 72bf 2f3c b893 06bc
00000020: be8e 983c 2cc4 8c3c a312 823c 66ad 87bc
00000030: d392 093c ac7c e93b 36ec 45bb 6e66 21bc
00000040: fd2b 503c 368e 0c3c 6fda 973a c3d7 71bc
00000050: 6846 443c 86e7 ef3b e8c2 7cb9 e6c6 5abc
00000060: 5e5b 523b fcb5 eaba be66 223a 37d7 17bb
00000070: 3f6d 9e3b 5745 d33b 2c46 dcbb 8dc8 b0bb
00000080: e098 963b d8ac 37bb 2a1e 2a3b 16cd e0bb
00000090: 5c8e 2cbb f450 adbb 86af 9b3c 768e 523b
000000a0: 1b06 bcbb a96a babb cc82 273b c776 be3b
000000b0: 9f3a 003c 5b0b 4a3c fd6c bebb 6036 e0bb
000000c0: 7835 393c 0fe2 633c 65ee 09bc 7159 2fbc
000000d0: 76c4 d93a bb33 f6ba 01ed 9f3b b280 78ba
000000e0: f9bb eb3a b486 cabb 233e 913a 8000 09bb
000000f0: 4936 a5ba cf50 0dbc 3982 153b e58c f73a
00000100: 97fb ad3a fe13 d2bb cec6 b93c 3173 cc37
00000110: b35a be3b 7a6c 8d3b f982 26bc 90e8 0bbc
00000120: d608 5a3c 03de 523c 1056 88bb 37f1 58bc
00000130: 15bd ab3b 6b21 fdba c70c 2c3c ba2c 81bb
00000140: d6e4 e6bb 75dd 9fbb d2bb 27bc 4706 433c
00000150: bd21 a3bc 259d 8bbc 5125 d43b 7e29 7c3c
00000160: 6744 923a 44e6 ef3b 2a47 e1bb 159f 86bb
00000170: 7931 4bbb 7894 11bc b7e4 173c 2684 703b
00000180: 960c f73b 72ce 5a3c 0b37 f1ba 2f54 48bc
00000190: 52e9 de3b 5eb6 043c 0e5f 4c3a 9d91 d8bb
000001a0: ea08 8e3a 68ce 873b 59c0 e9bb 7cf1 62bb
000001b0: 6387 76bb 814c 3ebb d9b6 47ba 882d 65ba
000001c0: 15df d9b9 7b47 093b ca28 7ebc 5834 1f3b
000001d0: 63ac 49bc 402c 94bc 1f8a 29bb db87 473c
000001e0: a606 2abc 3f34 0bbb 5d29 fa39 8b8f 013c
000001f0: 3726 7c3c 225a 893c 38c6 d9b9 9385 8dbc
00000200: 6401 7939 6191 e53b 818c ae3a d567 66bb
00000210: 7253 4f3c 7fc5 863c b1c1 b63b 9cee 89bc
00000220: e865 9b3b 66e0 c0ba 9110 0b3b ccc0 94bb
00000230: be2d 96bc 9dd9 81bc 9d66 103c 6907 9d3c
00000240: 6b1c 223b 242a b8bb 5e8c 973a 5e3c 02ba
00000250: 4aaa 393b 1d82 bc3a e50d 533b 63fe faba
00000260: d16e 9e3a 7333 25bb b688 dfbb 6087 20bb
00000270: 59cc a8b8 3238 9fbb 2ab3 573c bc32 2d3b
00000280: 9220 323c 9439 503c 2383 9cbb f113 75bc
00000290: 0235 5d3b 7836 1f3b 4be3 1139 13ed 3bb8
000002a0: 3bf4 4cbb fe55 0ebc ff77 483c 63d8 9d3b
000002b0: 4d69 06bc a16f 0ebc 0ad6 723b f6c0 b93b
000002c0: 9208 d13b 664f 5c3b 93bf 0f3b 8c16 d7bb
000002d0: fcb8 8eba 33f5 783b 17e0 cbba aeb3 29bb
000002e0: 24d6 03bb 3477 e3bb 342e 41bb 2121 493b
000002f0: ff9d 86bc f22d cfbb 8485 0abb 2b59 5a3c
00000300: f79c 80bb 83f5 d0bb 52c5 cf3b bf72 853b
00000310: 9e95 433c c14c 313c e10a 1e3c dcd0 e6bb
00000320: 593d fcbb d325 0fbc db9a b83b b0a2 203c
00000330: c94b 363c 5b4f ad3b a0bf bcbb 8156 b3bb
00000340: 9479 683c 6b92 ac3b bd2c faba f9b6 4ebc
00000350: b873 2b3a 53b9 d53a 9de6 f239 de48 a23a
00000360: b684 a23b c5b6 5f3b e916 1e3c 64bd a8bb
00000370: 6fc8 773c ec49 763c 95ea 173b 334c 54bc
00000380: afc1 5b3a 4c20 a73b 3b4a 95bb 3f6a 40bb
00000390: 3304 4fbb 9ad6 5a3a 972c aa3c d8c0 973a
000003a0: 405d a83b 40a3 1abb dc71 5739 f30e 38ba
000003b0: 0875 143b 781c bd3b 3f8b 3f3b 99fa afbb
000003c0: d4e6 7abc 3477 31bc a1f1 6a3b fa8d 753c
000003d0: 24f9 05bc 5805 a2bc 1fad 5a3c 2f5d a33c
000003e0: 775e f1bb eaec 9dba fcf8 1fbb a1e2 cf3b
000003f0: 95d3 5d3a a44a a539 922a 093c 10f8 253b
-0.0082929935 -0.0048089777 -0.0044190264 0.009365442 0.013215718 0.009643403 0.010726796 -0.00821393
0.018622752 0.017183386 0.015878027 -0.016562175 0.008396822 0.0071254577 -0.0030200607 -0.009851081
0.0127058 0.008578828 0.0011585484 -0.014760914 0.011979677 0.007321301 -0.00024105201 -0.013353085
0.0032097916 -0.0017907019 0.00061951193 -0.002316905 0.0048348005 0.006447475 -0.0067222323 -0.0053950013
0.004595861 -0.0028026607 0.002595792 -0.0068603856 -0.002632997 -0.0052891914 0.019004595 0.003212837
-0.0057380325 -0.0056889844 0.0025560139 0.005812499 0.007826476 0.012331809 -0.0058113323 -0.0068424195
0.011304252 0.013908877 -0.008418654 -0.010702477 0.0016614336 -0.0018783727 0.004880548 -0.00094796263
0.0017985097 -0.0061806086 0.001108114 -0.002090484 -0.0012604679 -0.008625223 0.0022813214 0.0018886594
0.0013273832 -0.0064110747 0.022677805 2.4372335e-05 0.005809152 0.00431591 -0.010163062 -0.008539334
0.013307771 0.0128703145 -0.00416065 -0.013241104 0.005241046 -0.0019312327 0.010501093 -0.0039420994
-0.0070463223 -0.0048786947 -0.010237651 0.011903352 -0.019913549 -0.017042706 0.006474175 0.015390752
0.0011159302 0.007321151 -0.0068749385 -0.0041083195 -0.003100483 -0.008885495 0.009270838 0.003669986
0.007539342 0.013354884 -0.0018403245 -0.012227102 0.0068027163 0.00810012 0.00077961467 -0.0066091553
0.0010836397 0.0041444786 -0.0071335253 -0.00346288 -0.0037617318 -0.00290373 -0.0007618494 -0.00087424414
-0.00041555674 0.0020947147 -0.015512655 0.0024292674 -0.012309167 -0.018087506 -0.002586968 0.012178387
-0.010377562 -0.0021240858 0.00047714534 0.0079077585 0.0153899705 0.016766611 -0.0004153715 -0.017275607
0.00023747009 0.007005856 0.001331702 -0.0035157104 0.012654172 0.016451595 0.005577289 -0.01683741
0.004742373 -0.0014715313 0.002121959 -0.0045395847 -0.018332358 -0.015850836 0.008813527 0.019168573
0.0024736177 -0.005620258 0.0011562218 -0.0004968102 0.002833026 0.0014382038 0.0032204327 -0.00191493
0.0012087469 -0.0025207668 -0.006821717 -0.0024494752 -8.048927e-05 -0.004858994 0.013165275 0.0026427945
0.010872023 0.01270904 -0.004776375 -0.014958368 0.003375352 0.002429394 0.00013912951 -4.4805067e-05
-0.0031273502 -0.008687494 0.012235641 0.004817055 -0.008203817 -0.008693607 0.0037053847 0.0056687547
0.0063791955 0.003361666 0.0021934255 -0.006563967 -0.001088887 0.0037987947 -0.0015554455 -0.002589445
-0.0020116651 -0.0069417004 -0.0029477002 0.0030689912 -0.01643276 -0.006322616 -0.002113671 0.013326923
-0.0039249617 -0.0063769235 0.006340661 0.0040725167 0.011937527 0.010821522 0.009646148 -0.007043941
-0.007697743 -0.008737045 0.0056336946 0.009804413 0.011126467 0.005289001 -0.005760148 -0.0054729586
0.014189143 0.005266478 -0.0019086819 -0.012616866 0.0006540376 0.0016305841 0.00046329657 0.0012381335
0.004959668 0.0034136039 0.009649017 -0.0051495302 0.015123471 0.015032273 0.0023180593 -0.01295762
0.0008383048 0.0051002856 -0.004555968 -0.0029360203 -0.0031588196 0.0008348018 0.020773215 0.0011577858
0.0051380694 -0.002359584 0.00020546414 -0.00070212706 0.0022652764 0.005771216 0.0029227284 -0.0053704497
-0.015313823 -0.010831643 0.0035849588 0.014987463 -0.008177076 -0.019777939 0.013346939 0.019941894
-0.0073659974 -0.0012048755 -0.002440988 0.006344155 0.0008462009 0.00031526864 0.008371966 0.0025324859

base_model.model.transformer.h.1.attn.c_attn.lora_A.weight f4 [4, 768]
00000000: 971c 083d 5b89 bdbc 518b 48bc 9d59 023d
00000010: b914 3bbc 1d83 383d 6471 58bd e094 04bc
00000020: ee8a a03c 5b4b 7cbb b4e5 403c 5652 87bd
00000030: 1d28 0f3c b613 8bba acc5 613d 4a1a 67bb
00000040: 1651 f9bb 4b8b 9dbb 1318 053d 746c 0abc
00000050: 22db 6fbb bf30 96bc 62b7 533b fd0c f1bc
00000060: da31 46bc d880 bcba 98f6 203c 0eac 163d
00000070: 521b 183b 2838 f1ba f8d5 d43c 7f0c c83b
00000080: a341 17bd 6e1e e43c e303 893a 13ae 423d
00000090: 2170 37b9 4c83 34bc 0426 003d 57f0 57bd
000000a0: 608d a33b d6b2 febc cd78 393c 8b24 82bc
000000b0: c02a 51bd 1781 88bc 0631 8c3d c81a 80bb
000000c0: 068e f2bc 6a44 99bc 4a15 133d 97aa 14bc
000000d0: 3035 aebb 6d50 ab3c e8de 1ebb c388 2cbd
000000e0: efc3 c5bb a45c fbbb f750 d9bc 201c d7bc
000000f0: 4729 80bc 92d4 083d 3282 44bc add0 85bc
00000100: 9d46 8bbc d639 07bc 886e 5b3d 4a21 eb3c
00000110: 1294 27bc 850d 063d 83a6 15bd 6de3 1abd
00000120: 938c 2fbd 0d3b e63c ede9 bcbb 72d5 623d
00000130: 1779 99bc b949 70bc 8a45 fcba e126 243b
00000140: 5e36 603d 100e 81bc 0569 7b3c ab16 e4bb
00000150: 6cdc 9fbc 4fce 1b3d 361a c8bb eeca 803b
00000160: 2af6 22bd 6045 3dbd c39a d5bc 54e8 3fbb
00000170: 3f00 3e3b 8d45 763d 37bc 16bc 8dc4 933c
00000180: 9637 403d fb55 473d a419 7dbd 3016 3dbb
00000190: 2841 82bd d6a5 273d d40c 043d 11bc 2ebc
000001a0: 1ab9 4ebd 0f1a 3d3b d9ca 013d 0cf5 33bd
000001b0: 8472 f03c 5613 b4ba c89d 30bc d512 56bd
000001c0: f137 093c da9f ba3c 48ec 403d 1be1 27bd
000001d0: 80d6 bbbc 70c4 783c 8d34 febc 4004 cdbb
000001e0: 607c 13bd c516 b5bc 6339 71bd 0e64 973b
000001f0: f057 57bd 13c8 6f3b 1b83 3cba 2340 203c
00000200: 4f3b 713d e26c 493c 795a 78b9 c864 613c
00000210: 919d 6ebd 6417 cc3c d7fb 523b d38f 72bd
00000220: b965 153c f503 4d3d ab85 b93b abfa 0dbc
00000230: af06 84bb 2c54 a0bc 1386 cbbc 9962 163c
00000240: f59f fb3c fb8e 543d f9ca 12bd 73ee cbbc
00000250: 03fc 6ebd dd8d 3dbd 37a4 3bbd a10c f8bc
00000260: 1f65 293d 64f9 023d d4f6 02bd 437c 8b3b
00000270: 453b d1bc a9e3 26bd e0cf ffba 5a34 6dbc
00000280: 65ef 48bd 1b5a d9bc 8ae4 4a3d cafb bf39
00000290: df02 f3bb 10f2 08bc bc01 6ebd 76ab d2bc
000002a0: 60b4 1bbb c23c 663c 1c14 623b e76d 3bbd
000002b0: 9395 b0bc 604d f33c 9620 b1bc 1c88 253d
000002c0: 8594 06bc 6e4d 4cbc d12c 123d 60b4 7bbc
000002d0: f0bb 08bc 336c 06bd 1b86 1bbc 0dd0 6639
000002e0: f39e a5ba a818 3d3c 7669 b9bb 9c37 603d
000002f0: 43a9 573d 24fa 3ebc 6c45 2abb dd98 4c3b
00000300: 88f3 41bd 47c1 44bc d5a7 793b 2072 533d
00000310: f725 50bd 4751 753d 6f13 69bd e66b 3a3d
00000320: b66a 5ebd dfb0 b4bc b2dc bdbc c4ce c33c
00000330: ae61 423d c49c 38bc 32fa 143d 2e02 6cbc
00000340: 510e e73c 470b b43c 20cf 5dbb 0da6 443d
00000350: 3698 563d 4ec2 de3a 1191 113c a079 6bbc
00000360: a660 003d 4d4d 1b3d ee31 993c a0a1 223d
00000370: 69d9 15bd bddb f33b f70e 0d3d 84a4 eebb
00000380: 21d8 973b 902a 663d babd f33c c38e eb3a
00000390: 86bb 9c3c 576c 72bd 5723 91bc 831f 25bd
000003a0: 366e 603c cb25 43bd dc8f 5ebd b704 1f3c
000003b0: cb70 353d 3880 d1bc 89a2 273d 4b1f 133d
000003c0: ff41 ebbc aaf2 223b cb3f a9bc 240e 4d3d
000003d0: d9af 153d 1100 bdbb 303b 253c b235 3bbc
000003e0: cab8 3f3c 8b4e 35bd f830 613a 33d9 913d
000003f0: 4569 9ebc 902d 603d 6e69 11bd 1127 cd3c
0.03323039 -0.023136785 -0.012240247 0.031823743 -0.011418515 0.045046914 -0.052842513 -0.008092135
0.019597497 -0.0038497064 0.0117735155 -0.06607501 0.008737591 -0.0010610733 0.055120155 -0.0035263472
-0.007608543 -0.004807865 0.032493662 -0.008448709 -0.003659912 -0.01833379 0.003230535 -0.029425139
-0.0120968465 -0.001438166 0.0098244175 0.036785178 0.0023209644 -0.0018403577 0.025980935 0.0061050053
-0.03692783 0.027846541 0.0010453429 0.04752929 -0.00017494011 -0.011017632 0.031286255 -0.05271944
0.0049912184 -0.031091135 0.011320305 -0.015886566 -0.05106616 -0.016663117 0.06845288 -0.0039094426
-0.029608738 -0.01870938 0.035908975 -0.009073875 -0.005316399 0.020912373 -0.002424175 -0.042122614
-0.00603532 -0.0076709557 -0.026527865 -0.026258528 -0.015644683 0.033405848 -0.011993932 -0.016334856
-0.017001444 -0.008253535 0.053572208 0.028702397 -0.010228174 0.032727737 -0.03653575 -0.037814546
-0.04285867 0.02810433 -0.005765191 0.05537934 -0.018734498 -0.014666014 -0.0019246798 0.0025047588
0.05473935 -0.015753776 0.015344863 -0.00696071 -0.019514285 0.038038548 -0.00610664 0.003930441
-0.03978554 -0.04620874 -0.026074773 -0.0029282765 0.0028991846 0.060124923 -0.009200147 0.018038059
0.04692801 0.04866598 -0.06179203 -0.0028852336 -0.06360084 0.040929638 0.032238796 -0.010664956
-0.050469495 0.0028854643 0.03168759 -0.043934867 0.02935148 -0.0013738673 -0.0107798055 -0.052264053
0.008375154 0.022781301 0.047100335 -0.04098616 -0.02292943 0.015183553 -0.031030918 -0.00625661
-0.036007285 -0.022105584 -0.05889262 0.0046200817 -0.052574098 0.003658776 -0.0007191167 0.009780916
0.05889445 0.012294026 -0.00023684827 0.013756938 -0.058255736 0.024913497 0.0032193565 -0.059219193
0.009118491 0.0500526 0.0056616864 -0.008665721 -0.004029117 -0.019571386 -0.024844205 0.009178781
0.030715922 0.05189417 -0.0358381 -0.024893975 -0.058345806 -0.04627787 -0.045810904 -0.03027946
0.041356202 0.03197612 -0.031973675 0.0042567565 -0.025540957 -0.040744457 -0.0019516908 -0.014477814
-0.04905643 -0.026532223 0.049534358 0.00036617956 -0.0074161137 -0.008358493 -0.058107123 -0.025716525
-0.0023758635 0.014052572 0.003449685 -0.045759108 -0.021555698 0.029699981 -0.021621983 0.040413007
-0.008214121 -0.012469633 0.03568727 -0.015362829 -0.008345589 -0.03281803 -0.009492422 0.00022012014
-0.0012635872 0.011541523 -0.005658324 0.054740533 0.052651655 -0.011656318 -0.002598132 0.0031219043
-0.04735139 -0.012008972 0.003809442 0.05162251 -0.050817456 0.059891965 -0.0569033 0.045513056
-0.054300986 -0.022056995 -0.023176525 0.023902304 0.047456436 -0.011267845 0.036371417 -0.014404817
0.028205069 0.021978034 -0.003384538 0.04800992 0.052391253 0.0016995163 0.008884684 -0.014372259
0.03134217 0.037915517 0.018700566 0.03970492 -0.03658429 0.0074419663 0.0344381 -0.0072827954
0.004633919 0.056192935 0.029753555 0.0017971623 0.019132387 -0.059185352 -0.017717047 -0.040313255
0.013698151 -0.047643464 -0.054336414 0.009705714 0.04429702 -0.025573835 0.04092649 0.035918515
-0.028717993 0.0024863877 -0.020660302 0.050062314 0.036544655 -0.00576783 0.010084912 -0.011426376
0.011701772 -0.044264358 0.0008590366 0.071215056 -0.019337306 0.05473095 -0.035500936 0.025043042

base_model.model.transformer.h.1.attn.c_attn.lora_B.weight f4 [2304, 4]
00000000: dd0f 5abc ef15 46bc 2bb9 87bc e526 553c
00000010: 75d9 d7ba 4593 f539 a9aa cf3a 0d56 24bb
00000020: cec6 dfbb 3878 58bc 8206 27bc 003d 7c3c
00000030: d22c 8dbb 2d53 8dbb 9d33 b5bb 40e2 c93b
00000040: 8d5a f63a 27a9 b4b9 c960 7f3a afd0 b3ba
00000050: ed92 a4bb 6511 203b 6649 2cbb 4c4f cbba
00000060: fd38 1dbc 49b9 45bc 54e4 4fbc 4ca5 393c
00000070: 551b 04bc 836d 2ebc 1d4c 2ebc 9558 6d3c
00000080: 0423 c7ba 5d1c ac38 c852 63ba 3835 b93b
00000090: 9790 e9ba fa57 953b 02c8 8f3a 4cdd c1bb
000000a0: d85f c53a 1a0a 8ab9 dfb8 30b9 4e9f 293b
000000b0: bc4b 3a3b a03e d53b 212a 753b 31c8 febb
000000c0: 0a8e edba dc37 f0ba 0c9e 7bbb 600d 303b
000000d0: 4e2f d8bc 9bb4 e0bc 4d0b 01bd 0f48 e13c
000000e0: c447 2ebc 75b4 febb d53c 21bc cf06 b03a
000000f0: d4fb d8bb 3d3a 2cbb c16d bdbb a010 2b3a
00000100: 93c8 49bc b9ea 86bc b082 45bc 5e4c 4f3c
00000110: 5a5d 50bb 04e1 f4ba 8a18 9bbb 02ac 473b
00000120: b76a e339 14d7 83bb faad b1bb b673 f93a
00000130: 3b51 4f3c 0201 6c3c 4183 6f3c 3b67 fcbb
00000140: cf24 9dbb f025 45bb f586 b3bb f04b ba3b
00000150: 7b87 80bc 7d4e 0cbc e02f 55bc 541a f93b
00000160: 0071 513c fe71 423c 9fe5 453c 9e26 33bc
00000170: 1c36 1dbb 273d fe3a 6f72 3cbb a061 3abb
00000180: 8530 62bb 7575 8fbb 21c3 343a fc52 e53b
00000190: 6aa4 39bc d5ce 00bc 8862 d5bb a543 a23b
000001a0: 3504 1dbb 18d8 21bb 87ca 9fbb 3205 ebba
000001b0: 8163 3aba 49f2 b0ba 67d1 e939 41dd 61bb
000001c0: f4c2 a53b 30d8 c33b f0fd a83b 2d9d aebb
000001d0: 21a5 f83a 012f acba aa00 053b 7cd1 00b9
000001e0: 876f 1e3b 7613 d73a 5cc1 943a e741 ac3b
000001f0: c0d6 1ebc 68c4 4bbc eccd 56bc 2ef2 473c
00000200: 4c6d 9ab9 4a9c 8d3b c412 d83a 96e9 fabb
00000210: 9f5e b33a 6610 b6bb 6b1e 953a 48f7 a63b
00000220: 42ab 753b f528 323c 3a18 cc3b c432 02bc
00000230: 0a74 75bc 5b2e 6ebc 804f 8fbc 919d 4e3c
00000240: fb12 5e3b 1f62 09bb 4ec2 17bb 888d bd3b
00000250: 8736 fc3b 16e1 303c 77a6 5f3c 1acd 19bc
00000260: 27cf 99bb 7521 38bb 4d8d d739 cd08 91bb
00000270: 2050 823c 8719 9b3c dd5e bc3c ec20 a5bc
00000280: 61f7 fbb7 6b4a 493b fafc 11b9 9a6c aabb
00000290: 65dd d9bb ee02 efbb 88cf bfbb 275f 843b
000002a0: 7b73 bbbc 6e6b bcbc a977 e1bc a4d1 a93c
000002b0: d12c 21bc e962 ccbb 2bf9 12bc 6c6d 673b
000002c0: 2952 4b3c 41d8 133c f9e7 8c3c ac08 ffbb
000002d0: c26f 803c 1b59 313c 2b13 263c 65cc babb
000002e0: 588f e6bb ff83 16bc 020f 27bc 5566 e83b
000002f0: f7f3 55bb 4286 a1bb 52b4 ebbb b0cd f03b
00000300: fe04 9b3b f44f 6b3b 8f88 5b3b 71f4 b33a
00000310: 9737 393c 146d 203c 972d 3e3c b6fe 01bc
00000320: 33c3 b3bb 1cd4 adbb f66a e9bb f1ef 833b
00000330: 8474 cbbb 8ed5 b8bb a9f7 16bc 58f5 133c
00000340: 58a4 e93b 525e 573b a5d1 133c 049b 8fba
00000350: 67bf acbb 068f 13bc dfca 39bc e8fb 4a3c
00000360: c5e1 1fbb 8980 dcb9 4fa0 feba 37b8 733b
00000370: 12f9 2f3b 7d10 4d3b 22bb 0c3c f000 99ba
00000380: 3b6b 3ebc 1c62 10bc 66ba 52bc 9535 3e3c
00000390: 832e 153c 523f 1f3c beec 393c bae8 4fbc
000003a0: 8df9 a3bb 5e60 94bb ca5b 08bc d44c b03b
000003b0: 6c59 90bc 52cb 81bc 2c44 94bc 963b 713c
000003c0: 7855 f63b 694d 073c 884c fa3b 97b4 6dbc
000003d0: 719e 3b3c 376f 533c fb74 7e3c 15be 84bc
000003e0: ba48 913a a6d8 0dbb b9cd 52bb 57bb d73b
000003f0: 8ebb 8b3b 79e2 943b c3f1 c5b9 4bc3 e3b9
-0.013309446 -0.01209019 -0.016567787 0.013009761 -0.0016468005 0.00046839766 0.0015843707 -0.0025075704
-0.0068291193 -0.013212256 -0.010194423 0.015395403 -0.0043083215 -0.004312894 -0.0055298344 0.0061610043
0.0018795297 -0.00034458304 0.00097419 -0.0013718809 -0.0050223977 0.002442443 -0.0026288866 -0.0015511303
-0.009596107 -0.012068101 -0.012688715 0.011330914 -0.008063157 -0.010646227 -0.010638264 0.014486452
-0.0015192931 8.206882e-05 -0.0008671698 0.005652096 -0.001781958 0.0045576068 0.0010969641 -0.005916273
0.0015058471 -0.00026328937 -0.00016853538 0.0025882307 0.002842649 0.0065077096 0.0037409144 -0.0077753295
-0.0018123996 -0.0018327194 -0.0038393764 0.002686344 -0.026389744 -0.02742987 -0.031504918 0.02750018
-0.010637227 -0.007772977 -0.009841164 0.0013429763 -0.006621817 -0.002627983 -0.005780906 0.00065256096
-0.012315887 -0.016469346 -0.012055084 0.012652485 -0.0031793923 -0.0018682783 -0.00473315 0.0030467515
0.00043376323 -0.004023442 -0.005422351 0.0019031677 0.012653644 0.014404537 0.014618696 -0.0077027357
-0.0047956477 -0.0030082427 -0.0054787346 0.005685322 -0.015689602 -0.008563635 -0.013011903 0.0076020155
0.012783289 0.011867998 0.012078672 -0.0109345 -0.002398855 0.0019396887 -0.0028754731 -0.0028439537
-0.0034513783 -0.0043780156 0.00068955316 0.006998418 -0.011330703 -0.007861813 -0.00651199 0.0049519115
-0.0023958806 -0.0024695452 -0.004876438 -0.0017930625 -0.0007110164 -0.0013499941 0.0004459724 -0.0034464153
0.0050586406 0.0059766993 0.005157225 -0.0053287954 0.0018970111 -0.0013136567 0.0020294585 -0.0001228507
0.0024175362 0.0016408998 0.001134913 0.0052568796 -0.009694755 -0.012436964 -0.013110619 0.012203736
-0.00029454601 0.0043216096 0.0016485085 -0.00765724 0.0013684815 -0.005556154 0.0011376863 0.005095396
0.003748611 0.010874023 0.006228474 -0.007946674 -0.014981279 -0.014537419 -0.017493963 0.012610809
0.0033885825 -0.0020963026 -0.0023156586 0.005784694 0.00769693 0.010795852 0.013650528 -0.009387279
-0.004693884 -0.0028096114 0.00041113273 -0.004426098 0.015907347 0.01893307 0.022994453 -0.0201573
-3.0036726e-05 0.0030714523 -0.00013922519 -0.0052009346 -0.0066487067 -0.0072940504 -0.005853597 0.0040396634
-0.022882214 -0.023000445 -0.027522879 0.020729847 -0.009837345 -0.006237377 -0.008970539 0.0035313023
0.012409725 0.009023727 0.017200457 -0.007783016 0.01567829 0.010824467 0.010136406 -0.0057006353
-0.007036131 -0.009186744 -0.010196449 0.007092277 -0.0032646635 -0.004929335 -0.0071931267 0.0073487386
0.0047308197 0.003590581 0.0033498143 0.0013729465 0.011304758 0.009791631 0.011607549 -0.007934263
-0.005485916 -0.0053048264 -0.0071233464 0.004026406 -0.006208958 -0.005640692 -0.00921432 0.0090306625
0.007130187 0.0032862616 0.009022151 -0.0010956232 -0.0052718404 -0.009006267 -0.011339872 0.012389161
-0.0024396044 -0.00042057436 -0.0019426438 0.0037188658 0.0026851338 0.0031290345 0.008589538 -0.0011673253
-0.011622245 -0.008812454 -0.012861824 0.011609455 0.009105328 0.009719687 0.011347948 -0.012689764
-0.005004114 -0.0045280894 -0.0083226655 0.0053802524 -0.017620765 -0.015844021 -0.018098913 0.014723679
0.007517513 0.008258202 0.007638518 -0.014508388 0.01145135 0.012904934 0.01553082 -0.01620392
0.0011084296 -0.0021644025 -0.0032166077 0.006583612 0.0042643016 0.004543599 -0.00037754895 -0.0004344232

base_model.model.transformer.h.10.attn.c_attn.lora_A.weight f4 [4, 768]
00000000: 44e2 14bb 6f80 debb e3ce 273d 4a49 623d
00000010: 3af5 98bc 8a0e 75b9 508e d53c 15cb f63c
00000020: bb19 873d 04a3 83bd 3621 ffbc b682 993c
00000030: 505e 9a3c f1c6 003c 3545 dcbc 8f59 433b
00000040: 5a39 403d 7cae b83a 766f 43bd 4b69 3f3d
00000050: 9316 f0ba ac33 ac3c 4cf9 80bc 2b30 0dbd
00000060: c7c0 75bd 2a04 8c3c 8f85 1e3c ec70 cfbc
00000070: 2ed1 a63c fa58 7c3c b195 d43c 41f8 3a3d
00000080: 9566 4f3d 848d 42bc c4fc 1e3d 8143 f33b
00000090: d0b9 bf3c c38f de3c ea8c 753d 54b2 31bd
000000a0: f44d 703d 2981 9abb f4d8 4b3d 234b 9ebc
000000b0: 4229 36bd 73b8 b03b f826 5f3d d146 e0bc
000000c0: 1f5f dd3a 833f 973c c350 733a c5ca 07ba
000000d0: e8d2 383d 4b41 e53b a3cd 663d 2c37 24bd
000000e0: ff39 b0bc fa77 823c 5612 89bc a716 36bc
000000f0: 093e 0c3c a483 633c aff4 253d 160e 77bd
00000100: 1f9d d43c cee8 593c 3570 8b3c eeee f73c
00000110: 15b2 323d 6f28 18bc c2c7 7abc 5e4c 5ebc
00000120: e27a 6cbd 26ec 4fbd 4da0 2a3c b3c3 8bbd
00000130: 2f84 823a 7629 04bd 89a6 6c3d d5a5 5abd
00000140: ff5e 123b 6c20 4bbd fcdc efbc df7d e23c
00000150: 4038 313c e617 b03c faed 053d 6130 de3c
00000160: b555 563c b467 e8bc a194 1b3d 0b06 84bd
00000170: 4bea 91bc 6fd9 d33c c5cf 2a3d e0b4 f63a
00000180: c00d 553d 03fc 8b3c 3ced 253d 0bfa 6dba
00000190: 427e 043d 4db2 63bd fadf c7bc 66fa 73bb
000001a0: c3fd 81bd 145c 00bb 7c5f 20bd 5d9f bb3c
000001b0: 4e17 84bd 90fc 233c dfe9 bf3c 2412 383c
000001c0: 022f e13a 3b6b e83c 52ce 9ebb 5b89 293d
000001d0: e202 093d 8f54 1ebd 0dc0 33bd 436f 80bd
000001e0: 3964 8f3c 2e65 6dbc f713 83bd f6c1 623d
000001f0: 7c77 c63c 469a c5bc ece0 193d d9a8 a33c
00000200: d316 ccbb d2d0 cbbb a8d2 933d 18b4 ebbc
00000210: 40b0 f63a 0c38 efba 2b7e 26bd f1c4 813d
00000220: a244 3ebc 14e2 a2bc 4afb a5bc 13e8 26bc
00000230: 30a4 2bbc adde 2b3d ff57 b8bb 9fd2 5cbd
00000240: 98e5 5bbd 3e35 04bd a1df e33b cc0f 80bc
00000250: 85b7 c5ba f9ed e3ba 53a1 4a3c 3450 c1bb
00000260: 7750 e83c 88cc 743b 59d7 c6bc 6e32 9db8
00000270: 37b5 4fbc 4fa2 71bd 35fa 05bd 0990 55bc
00000280: d016 5a3c 7dd7 9ebc 925d 01bc 334e 023d
00000290: e052 03bd fb54 6d3c 41fc f83c 4fbe 213d
000002a0: 2848 cabc f0d4 bfbc 057d 3c3d c02d d43b
000002b0: 4b99 853c babe e5bc 840a 213c bcff 803d
000002c0: c9c4 b33c 456c 86bc 75fe 53bc 7f85 19bb
000002d0: b9bd 03bd a166 353c c1d1 f93c 0da6 8bbc
000002e0: b0b6 083c 78fb 1bbb 12a1 6a3d 8c9e babc
000002f0: 0dfd 22bd 5745 943c fde0 cfbc 8a4e acbb
00000300: 84c2 413c 50a5 82bd 7be9 6a3c b938 7f3d
00000310: 7709 513d e05b 43bd 491a 4b3d ee1b 24bc
00000320: c5d8 40bd d32a 29bd 15a5 703c 1dac 1ebc
00000330: c241 14bd 8971 183d fe41 21bb ce6a fbbc
00000340: 54ce 25bc 7daa 51bd 5f35 643d e173 6e3d
00000350: 352d 6ebd 4e35 a03a d4c8 093c cfad c6bb
00000360: 771f b7bb 3ffe 0ebb 7306 92bc 6ec6 50bb
00000370: 3be2 8b3d 9a20 cdbc 8991 80bd d4c1 413d
00000380: 4ec9 093d 998c 033d 713c fe3c e90b 0f3d
00000390: 1561 543c 59b7 2a3d 7902 423d 67ac b53c
000003a0: 118a 83bd 209a 793b a6ba 533d 3279 993b
000003b0: 8e48 3c3d 5958 37bb 70ab ea3c 7322 32bd
000003c0: 544d ce3c 09b0 6cbd f496 1c3d 57d5 1fbd
000003d0: 2306 473d 896b 73bd c7eb 44bd 2dd1 b23c
000003e0: 373e 59bc 4655 1b3d 178d 0c3d b613 ecbc
000003f0: 1360 b0bc 97cf 333d b70c 48bb 8e52 aa3a
-0.0022717873 -0.006790213 0.040968787 0.055245675 -0.01867162 -0.00023370437 0.026068836 0.030126134
0.065967046 -0.06427577 -0.031143766 0.018739086 0.0188438 0.007859931 -0.02688847 0.002980802
0.046929695 0.0014090086 -0.04771372 0.046731275 -0.0018317275 0.021020733 -0.015743874 -0.034469765
-0.0599983 0.01709183 0.009675398 -0.0253224 0.020363417 0.015402073 0.025950285 0.04564691
0.05063494 -0.01187456 0.038815275 0.0074238186 0.023404032 0.02716816 0.05994884 -0.043382958
0.058668092 -0.004715104 0.04976745 -0.019322937 -0.04447294 0.005393082 0.054480523 -0.027377518
0.001688931 0.018462902 0.0009281749 -0.00051800563 0.04512301 0.006996309 0.056348454 -0.04009168
-0.02151203 0.01592635 -0.016732376 -0.011113799 0.008559712 0.013886366 0.04051655 -0.060316168
0.025953827 0.013300134 0.017021278 0.030265298 0.043626864 -0.009286984 -0.015306415 -0.013568012
-0.057734378 -0.050762318 0.010414195 -0.06824436 0.0009957607 -0.032266103 0.057776008 -0.053380806
0.0022334454 -0.049591467 -0.029280178 0.02764791 0.010816634 0.02149577 0.032697655 0.027122678
0.013081958 -0.028369762 0.03798354 -0.06446465 -0.017811915 0.025860516 0.04170205 0.0018822215
0.052015066 0.017087942 0.040509447 -0.0009078092 0.03234697 -0.055589963 -0.024398793 -0.0037228107
-0.06347229 -0.0019586133 -0.03915356 0.022903139 -0.064497575 0.010008946 0.023426948 0.011234794
0.0017180147 0.028371444 -0.0048463726 0.041390758 0.033450015 -0.03865486 -0.043884326 -0.062712215
0.017503845 -0.014489455 -0.06400292 0.055360757 0.024226896 -0.024121415 0.037568018 0.019977974
-0.006228307 -0.0062199617 0.07217914 -0.028772399 0.0018820837 -0.0018250956 -0.040647667 0.06336392
-0.011613043 -0.019883193 -0.020261426 -0.010187167 -0.010476157 0.041960407 -0.0056257243 -0.0539118
-0.053685755 -0.03227734 0.006954149 -0.015632533 -0.00150846 -0.0017389647 0.012367564 -0.0058994535
0.028358681 0.0037353355 -0.024272608 -7.495737e-05 -0.012677482 -0.05899268 -0.03270932 -0.013034829
0.013311103 -0.019389862 -0.007895844 0.031812858 -0.032061458 0.014485593 0.030393722 0.039488133
-0.02469261 -0.023416966 0.046017665 0.0064751804 0.016308447 -0.028045047 0.009829167 0.062987775
0.02194442 -0.016409049 -0.012939085 -0.0023425517 -0.032163355 0.011071832 0.030495526 -0.017046953
0.008344337 -0.002380101 0.057282515 -0.02278068 -0.03979211 0.01809947 -0.025375837 -0.005258386
0.011826161 -0.06379187 0.014337893 0.062309954 0.051034417 -0.04769504 0.049585614 -0.010016425
-0.047081728 -0.041300606 0.014687796 -0.00968459 -0.036195524 0.03721765 -0.0024605985 -0.030690577
-0.010119993 -0.05118798 0.05571496 0.05821598 -0.05814858 0.0012222917 0.008409698 -0.0060632
-0.0055884677 -0.0021819023 -0.01782534 -0.0031856555 0.068302594 -0.02503996 -0.06277759 0.04730399
0.033639245 0.032116506 0.03103468 0.034923468 0.012962599 0.04167876 0.04736564 0.022176934
-0.064228185 0.003808625 0.051691674 0.004683637 0.04596763 -0.0027976243 0.0286462 -0.043489885
0.025183357 -0.057785068 0.038229898 -0.039021816 0.048589837 -0.059428725 -0.048076417 0.021828258
-0.013259462 0.03792312 0.03431424 -0.028817993 -0.021530187 0.043899145 -0.0030525157 0.0012994574

base_model.model.transformer.h.10.attn.c_attn.lora_B.weight f4 [2304, 4]
00000000: 252e 683b cf6e 49ba bad2 093b e078 4fbb
00000010: 8379 b03b cb4a dfb9 abe4 92bb 96d8 a6b9
00000020: 89c6 f93b 0d38 813b 11cc 75bb 11a7 e8bb
00000030: 2ce9 96ba c84f 88bb 38c7 9237 bd77 be3b
00000040: 92ae 7d3c 54fd 1e3c 413a 60bc ec60 83bc
00000050: 9af4 d63a b907 9eba 60dd 4aba 024f 1abb
00000060: bbcb 193c 52d3 753b 1eaa 16bc a946 38bb
00000070: 520e 143c 5e3e 803a d976 02bc 59b1 13bb
00000080: 72a9 56bc 3d4e abbb 346d 393c 7d91 dc3b
00000090: 98f8 6dbb 1bd9 1abb 33dd 203b de62 4a3b
000000a0: e088 52bb 68d1 fdbb 0ecc fe3b 0c2c f33b
000000b0: 48f8 03bc 1079 2438 7018 de3b ad5b a9b9
000000c0: 1c5c ddbb 7dc9 1abc 811e 443c 52bb 213c
000000d0: d393 37bc 823a 80bc 6416 773c a4b6 843c
000000e0: 2102 c43b d905 443b 303f 0fbc 1b42 e0ba
000000f0: f222 3e3b cd8e ea3b 3551 cfbb aaa4 f1bb
00000100: 50b8 1abc 02fc 06bc 35f4 4c3c f673 013c
00000110: c9b8 9cbb da71 1fbc 59c8 843b e1a4 223c
00000120: 0be1 91bc 6896 a2bc e035 af3c e04b a93c
00000130: 38f2 23bc ad8b f1bb 1b88 193c 4557 163c
00000140: ec21 0d3b 0186 c53b b49a adb7 981d 06bc
00000150: fbe0 1f3b 1146 a7ba b520 853b 8d61 f3ba
00000160: 3620 ef3c c8cd e83c 10dd f0bc 8a56 d6bc
00000170: e763 4d3c 7f27 6b3c c583 81bc f4a5 68bc
00000180: 4c10 68ba 72ba 15bc 8285 ad3b f828 183c
00000190: 4ca6 acba ff3a c53b 6094 bfba 7b72 dbbb
000001a0: b01d 9f3a 18ed 1b3b 9728 d2bb 0407 d5b8
000001b0: d5c5 d63a 06f8 00bc 859d 063b b18f f13b
000001c0: 3d12 94bb 170d d8bb 33a4 853b 3163 193c
000001d0: d69d 6dba 0f1b 0abb 85c0 15bb 73ad 163a
000001e0: af38 453b b7ad a93b f886 9cba 8a0a d7bb
000001f0: 1caf 883a 5433 d9bb e95f cd39 9c4e f93b
00000200: 51c6 01bb 26be d1bb 64dd c23b f905 de3b
00000210: 8740 c73b 1297 ef3b 1304 f8ba 3e06 1fbc
00000220: b979 86bb f455 e53a 5acc 7d3b 96d2 1abb
00000230: cc3f dc3b 7a9c 283c 8b5d 10bc 9d65 08bc
00000240: cf08 80ba 824d eaba b3e6 f9ba 2525 e73a
00000250: 6b84 32bb 63ad 4fbb d531 df3b cf78 5ab8
00000260: 1e0b 6d3c ad60 933c 2ac8 85bc f4e1 a0bc
00000270: 36e1 acba f3c5 cebb 545f f43a 990a cf3b
00000280: cc0f aebb 9d4a 39bc c111 193c f6ee 093c
00000290: 676f 25bc 2a1f ecbb 031a ca3b 8d33 1d3c
000002a0: b786 0abc 6d52 e6bb 9e56 f93b e1be fa3b
000002b0: 3a1c a23c 99ac 883c da67 b9bc 222b 7ebc
000002c0: 10f1 23bc 0be5 0dbc 980b 123c 540c e73b
000002d0: 4dc5 b5bb a09f 81ba 35d6 143b c17f b73b
000002e0: 2c5d 8a3a e7dc de3b 9ce4 c2bb 1d48 dabb
000002f0: 765b 053b 528b d53b e407 c1ba 0a13 91bb
00000300: 43df af3b 1fe9 4b3c 5bfe 07bc 0ce7 5bbc
00000310: dfd7 23bc b679 43bb 98cf db3b e014 d53b
00000320: 95c4 2d3c f9f5 823c 7bbb 81bc 1ec4 61bc
00000330: 56e4 1b3c 6744 1e3c 84b3 2cbc da91 33bc
00000340: 3e7d efbb 3669 6039 504f a33a bfc3 323b
00000350: bcd8 c2bb 1a12 2b3b f18f 383b c15d 063b
00000360: e01c 86bb e018 c5bb d117 363b aa7b 1b3c
00000370: 7db6 50b8 4e3a 04bc 6fc7 be3b 02cf c43b
00000380: 9d79 0f3c e28d 9c3b 7e71 b5bb f060 c8bb
00000390: f495 843b e190 4eba c3aa fa3a cedd 1dbb
000003a0: be61 9f3c fc29 c43c 1191 d5bc ca12 cfbc
000003b0: 9c00 1bbc eda9 23bc c646 443c de5a 4f3c
000003c0: 5bd8 693a 9c25 bcbb 0518 0d3b 7526 f839
000003d0: 9997 3a3c f1e6 433c f486 74bc f75d 28bc
000003e0: c1fd 43bb 2e3a 673b 6f2a fb3a baae 6fbb
000003f0: f59d 04bc 51c2 59bc 5c04 123c 9965 2d3c
0.0035427895 -0.0007684053 0.0021030144 -0.003165774 0.005385579 -0.000425896 -0.0044828258 -0.00031823356
0.007622544 0.0039434494 -0.0037505666 -0.007099994 -0.0011513582 -0.0041599013 1.7497325e-05 0.0058126138
0.015483515 0.009703953 -0.013685764 -0.016037427 0.0016399801 -0.0012056745 -0.0007738676 -0.0023545627
0.009386952 0.003750999 -0.009195833 -0.0028118289 0.009036617 0.0009784212 -0.007962906 -0.0022536127
-0.013101922 -0.0052278326 0.01131754 0.0067312107 -0.0036311503 -0.002362794 0.0024545908 0.0030881683
-0.003212504 -0.0077459104 0.00777579 0.0074210223 -0.0080548 3.9213395e-05 0.0067778155 -0.00032302496
-0.006755365 -0.009447453 0.011970163 0.009871321 -0.011204678 -0.015652899 0.015081022 0.016200371
0.005981699 0.0029910712 -0.008743092 -0.0017109545 0.0029012528 0.0071581365 -0.0063268193 -0.007374366
-0.009443358 -0.008238794 0.012509395 0.007901182 -0.0047827703 -0.009731734 0.0040522036 0.0099270055
-0.017807504 -0.01984711 0.021387994 0.020666063 -0.01000648 -0.007371387 0.009370829 0.00917608
0.0021535112 0.0060279374 -2.0695246e-05 -0.008185767 0.0024395573 -0.001276197 0.004062737 -0.0018568501
0.029190164 0.028418437 -0.029402286 -0.026164312 0.012536026 0.014352678 -0.015809903 -0.014199723
-0.0008852526 -0.00913869 0.0052954564 0.009287111 -0.0013172119 0.006018996 -0.0014616363 -0.0066969967
0.0012139585 0.0023792442 -0.00641353 -0.00010157938 0.0016385863 -0.007871633 0.0020540666 0.0073718657
-0.0045187757 -0.0065933573 0.004078412 0.009362028 -0.0009064352 -0.0021073257 -0.0022850346 0.0005747892
0.00300936 0.005178179 -0.0011942079 -0.0065625357 0.0010428163 -0.0066284332 0.00039172106 0.007608248
-0.0019802044 -0.0064008413 0.005946802 0.0067756143 0.0060806903 0.00731171 -0.0018922113 -0.009706078
-0.004103866 0.001749693 0.003872654 -0.0023624054 0.0067214724 0.010291213 -0.008811365 -0.008325008
-0.000976825 -0.0017875882 -0.0019065946 0.0017634971 -0.0027239572 -0.003168904 0.0068113604 -5.2087762e-05
0.014467983 0.017990435 -0.016330797 -0.019638993 -0.0013189677 -0.0063102185 0.0018644133 0.006318402
-0.0053119417 -0.011309293 0.009342612 0.008418789 -0.010097361 -0.0072058635 0.0061676516 0.00959481
-0.00845497 -0.007028869 0.0076092025 0.007652149 0.01978885 0.016683863 -0.022632528 -0.015513213
-0.010006204 -0.008660565 0.008913897 0.00705103 -0.0055472017 -0.0009889491 0.0022710685 0.0055999462
0.0010556332 0.006801236 -0.0059476625 -0.0066614286 0.0020348704 0.0065168524 -0.0014727083 -0.0044273185
0.005367191 0.012445717 -0.008300389 -0.013421785 -0.010000198 -0.0029827184 0.0067080967 0.0065027326
0.010605951 0.01598643 -0.015836468 -0.013779668 0.009514889 0.009659863 -0.010540847 -0.010960067
-0.007308631 0.00021401499 0.001245955 0.0027277318 -0.005946247 0.0026103319 0.0028161968 0.002050266
-0.0040927976 -0.006014928 0.0027785192 0.009489933 -4.976102e-05 -0.008070542 0.005822114 0.0060061226
0.008757022 0.004777656 -0.005537211 -0.0061150715 0.004046196 -0.0007879865 0.0019124377 -0.0024088505
0.019455787 0.023945801 -0.02607015 -0.025277514 -0.0094605945 -0.009989244 0.011979764 0.012655942
0.0008920484 -0.005741788 0.002152921 0.000473309 0.011388683 0.011956916 -0.014924753 -0.010276309
-0.0029905888 0.003528248 0.0019162426 -0.003657265 -0.0080943005 -0.013290958 0.008912172 0.010583305

base_model.model.transformer.h.11.attn.c_attn.lora_A.weight f4 [4, 768]
00000000: ca82 80bc 1a1f dcbc 97ab f9bc 2adc 0a3d
00000010: 9470 9abc 6cb5 913b 8e3e 623c 1e4c 57bd
00000020: d6a0 573c 45ac b43b 972f ffbc a722 1e3d
00000030: 2477 453c 05fa 153c c60d f8bc 0197 2e3d
00000040: dc7e 1d3d fcc2 dc3c 7c10 0ebb e742 173d
00000050: ef0c 533d bd2d 653d 91ce ccba 7193 1ebc
00000060: 2912 d0bc 7899 9d3b 4e95 d43c 8d3d 68bc
00000070: d833 013d 5f44 103d d4a9 083c 2702 08ba
00000080: adf7 3fbb 86a7 8fbb 321c a83c a664 e5bc
00000090: c91f 03bd 539b a9bc 24d1 c73c 26b2 e5bb
000000a0: e8e0 5e3d 70d2 90bc 37da 823d 3ead 043d
000000b0: 55cb fa3a 23b6 27bc 5589 623d 57ee 3ebc
000000c0: 0b4d c23c 47eb 2c3d fcf3 72bd c0b9 95bc
000000d0: 40f0 91bb f0b1 f0bb 0780 363d 9101 2fbd
000000e0: 7a64 1fbd d2e4 41bc 667e d5bc 72d6 d8bb
000000f0: 8f7e 183d 8bcf a73b d81e ad3b 539c 30bd
00000100: e1f9 9c3c fc61 af3c 403a 883d 4669 eaba
00000110: 4fb7 bf3c 27c4 ed3c 787f 5f3d e114 05bd
00000120: edff 01bd 516e 6fbd ec5a 2b3d 2ba8 75bd
00000130: e9d2 ee3c 3643 e9bb 29da fcbb b4ef e63b
00000140: 41cb 34bd 8370 44bd 5b77 84ba 01a0 3e3d
00000150: b712 5bbc b4bc 413d 3f48 3a3d 6572 5bbc
00000160: 114b 233d cc25 863c 741c 813d 4dfc 01bd
00000170: 980e e6bc dc02 f2bc 9511 e33c c699 853b
00000180: 6fa6 40bc 6058 953c 2056 cabb a8db 07bc
00000190: 4acd b73c 4334 0b3d 8bee 1cbb f766 d9bc
000001a0: 5aff e1bc 7b35 28bd 08ce fabc a3a3 62bc
000001b0: 63c2 57bd 42cf c53c 3199 b43c bc74 943c
000001c0: d162 37bd 3631 b4bc 86f7 49bd 5005 123b
000001d0: d29d 183d 54af 26bc 47f4 9fbb b069 e73c
000001e0: b555 423c d817 cdbc d180 49bd 304a 41bc
000001f0: fddb 243d bf4b 8dbb 4c3a 2d3d 772c 2bbb
00000200: bac2 4bbd 179f 57bb ca7b 1f3d b31d 9c3c
00000210: 4761 a73c 6d2f 57bc 454f 36bd 77e5 813d
00000220: 7626 823d e42f a7ba eba1 94bc 758f 81bd
00000230: fdce 143d acdd 9cba 63ff 1dbd 15d9 06bd
00000240: a6bd 8dbc cb69 95bb c656 c93a 9e25 04bd
00000250: b7e2 2b3d c059 b53c 9165 223d 26d5 df3b
00000260: 8e52 913d 5e4d b9bc 5217 993c 34b8 99bc
00000270: 480b d93c c6d9 54bd bc1f 5a3b 36c5 ad3c
00000280: d87d 183c 1828 f0bb f718 4abd 7e12 7a3c
00000290: 946b 99bc 28ca 37bc 33b7 7cbb 2743 3c3d
000002a0: 665b 1d3d 31f5 46bd 0898 8f3c 9275 4d3d
000002b0: 3faa 99bc de7c 8abc 191c caba 0d9d 173b
000002c0: ac6a 393d 4a40 d7bc 36f1 f1bc cc7e 2f3d
000002d0: 0d07 b6bc fb1f 4f3c 095e 283d 1656 b5bc
000002e0: 5911 d7bc 3f59 89bc bd7d 263d 5f57 cebc
000002f0: 3fd1 a2bc 4547 0e3d ca8d 0a3d b6ab ab3c
00000300: 7c18 113d 61ac 7c3a b6ef 043c 0f2c 97bb
00000310: 9b9a bebb ab78 d3bb 8c3b 503b e30d 62bc
00000320: 5ff8 00bd 789d 50bd 1858 c63c 82b5 3abd
00000330: da16 923c 103b 363b 3602 483c 7493 19bd
00000340: d22d 9d3a 2a93 e2bc a558 0b3d 11f9 5bbb
00000350: fbfa 9cbc 4566 a23c 6b56 ac3a 32b3 aabb
00000360: 91bf e33c cb25 8f3c e125 faba 33d5 c73b
00000370: b0a2 423d 18e7 a7bb bd6c 15bb 643c e2bb
00000380: 78c6 593d bf5a a93c 4f08 0c3d 6a7f 58bc
00000390: 5d7a 973b f3f0 4a3d 997c 093d 2905 a9bc
000003a0: 4313 febc 44c4 2fbc e1a8 0cbc 935c 423c
000003b0: c2d3 0fbc af5b 70bc 8269 973c fd31 2cbb
000003c0: 1792 be3b 454c 623c c41b 6bbc 4998 2a3d
000003d0: c72e 413d 42b6 4dbb 3de9 40bc a658 7a3c
000003e0: cd54 c13b dca9 513d 6a94 aebc 1756 3dbc
000003f0: 7a49 a0bc dd86 6b3d 8803 0a3c 579c 453d
-0.015687365 -0.0268703 -0.030477328 0.03390137 -0.01885251 0.004446676 0.0138088595 -0.052562825
0.013160905 0.0055137 -0.031150622 0.038607266 0.012052331 0.009153848 -0.030280005 0.042624477
0.03845106 0.026948445 -0.0021677306 0.036929037 0.051526006 0.055951823 -0.0015625526 -0.009678707
-0.025399284 0.0048095547 0.0259501 -0.014174831 0.031543583 0.035221454 0.008341271 -0.0005188309
-0.0029291913 -0.004383984 0.020521257 -0.028002094 -0.032012735 -0.020703947 0.024391718 -0.0070097623
0.054413706 -0.01767847 0.063892774 0.03239178 0.0019134084 -0.010236296 0.05530675 -0.011653504
0.023718378 0.042216565 -0.059314713 -0.018277049 -0.004453689 -0.0073454306 0.04455569 -0.042726103
-0.03891418 -0.01183434 -0.026061248 -0.0066173607 0.03723007 0.0051211766 0.005283218 -0.043117832
0.01916212 0.021409027 0.06651735 -0.0017884157 0.023402838 0.029024197 0.054564923 -0.032490615
-0.03173821 -0.058454815 0.041834757 -0.05997483 0.029153304 -0.007118608 -0.0077164364 0.007047618
-0.04413915 -0.047958862 -0.0010106371 0.04653931 -0.013371161 0.047299102 0.045479055 -0.013393973
0.03986651 0.016375445 0.06304255 -0.031734753 -0.02808313 -0.02954238 0.027718345 0.004077169
-0.011758431 0.018230617 -0.0061748177 -0.008292116 0.022436757 0.033985388 -0.0023945894 -0.026538355
-0.027587581 -0.041066628 -0.030615821 -0.013832959 -0.052675616 0.02414668 0.022045704 0.01812207
-0.044771973 -0.021996122 -0.049308322 0.0022280999 0.037259884 -0.010173637 -0.004881415 0.028248638
0.011861254 -0.025035784 -0.049195115 -0.011797473 0.04024886 -0.004312008 0.042291924 -0.0026119032
-0.049746253 -0.0032901221 0.038936414 0.01905713 0.020432128 -0.013133866 -0.04450919 0.06342595
0.06354992 -0.0012755361 -0.018143615 -0.063261904 0.036330212 -0.0011967919 -0.038573634 -0.03292187
-0.017302345 -0.0045597306 0.0015360944 -0.032262437 0.04196426 0.022137523 0.039647643 0.006830829
0.07095824 -0.0226199 0.018687878 -0.018764593 0.026494637 -0.051965497 0.0033283075 0.021212202
0.009307347 -0.0073289983 -0.049340215 0.015263198 -0.018728055 -0.011217631 -0.0038561344 0.04596248
0.038417242 -0.048573676 0.017528549 0.050160952 -0.018757937 -0.016905244 -0.0015419751 0.002313438
0.045267746 -0.026275773 -0.029533964 0.042845532 -0.022220159 0.012641902 0.041105304 -0.022135776
-0.02625339 -0.016766189 0.040647257 -0.025188146 -0.019875167 0.034735937 0.033826627 0.020955902
0.03542374 0.00096387236 0.008113792 -0.0046134065 -0.0058167703 -0.0064535937 0.0031773774 -0.013797256
-0.031486865 -0.050931424 0.024211928 -0.045583256 0.017833162 0.00278062 0.012207558 -0.037494138
0.0011991805 -0.027658064 0.034020085 -0.0033565203 -0.019162646 0.019824157 0.0013148313 -0.00520935
0.027801307 0.017474076 -0.0019084775 0.0060984134 0.047518432 -0.005123984 -0.0022800409 -0.006904172
0.05316779 0.020673154 0.03418761 -0.013213972 0.004622741 0.049546193 0.03356609 -0.020632343
-0.031015044 -0.010727946 -0.008585186 0.011862892 -0.008778514 -0.014670297 0.018482927 -0.0026274913
0.005815755 0.013812129 -0.014349882 0.041649137 0.04716375 -0.0031389152 -0.011774358 0.0152799245
0.0059000016 0.05118738 -0.021311004 -0.01155617 -0.019566286 0.057501663 0.0084236935 0.0482448
